{"format": "graph-model", "generatedBy": "2.18.0", "convertedBy": "TensorFlow.js Converter v4.22.0", "signature": {"outputs": {"Identity:0": {"name": "Identity:0"}}}, "modelTopology": {"node": [{"name": "ConstantFolding/model_59/tf.math.divide_1/truediv_recip", "op": "Const", "attr": {"value": {"tensor": {"dtype": "DT_FLOAT", "tensorShape": {}}}, "dtype": {"type": "DT_FLOAT"}}}, {"name": "model_59/tf.strided_slice_42/ones_like/tensor", "op": "Const", "attr": {"value": {"tensor": {"dtype": "DT_INT64", "tensorShape": {"dim": [{"size": "3"}]}}}, "dtype": {"type": "DT_INT64"}}}, {"name": "model_59/tf.strided_slice_42/StridedSlice/end", "op": "Const", "attr": {"value": {"tensor": {"dtype": "DT_INT64", "tensorShape": {"dim": [{"size": "3"}]}}}, "dtype": {"type": "DT_INT64"}}}, {"name": "model_59/tf.strided_slice_42/ones_like", "op": "Const", "attr": {"value": {"tensor": {"dtype": "DT_INT64", "tensorShape": {"dim": [{"size": "3"}]}}}, "dtype": {"type": "DT_INT64"}}}, {"name": "model_59/tf.math.add_202/Add/y", "op": "Const", "attr": {"value": {"tensor": {"dtype": "DT_FLOAT", "tensorShape": {"dim": [{"size": "1"}, {"size": "2"}, {"size": "8400"}]}}}, "dtype": {"type": "DT_FLOAT"}}}, {"name": "model_59/53869", "op": "Const", "attr": {"value": {"tensor": {"dtype": "DT_FLOAT", "tensorShape": {"dim": [{"size": "1"}, {"size": "2"}, {"size": "8400"}]}}}, "dtype": {"type": "DT_FLOAT"}}}, {"name": "model_59/tf.strided_slice_39/StridedSlice/begin", "op": "Const", "attr": {"value": {"tensor": {"dtype": "DT_INT64", "tensorShape": {"dim": [{"size": "3"}]}}}, "dtype": {"type": "DT_INT64"}}}, {"name": "model_59/tf.strided_slice_39/StridedSlice/end", "op": "Const", "attr": {"value": {"tensor": {"dtype": "DT_INT64", "tensorShape": {"dim": [{"size": "3"}]}}}, "dtype": {"type": "DT_INT64"}}}, {"name": "model_59/tf.strided_slice_39/StridedSlice/strides", "op": "Const", "attr": {"value": {"tensor": {"dtype": "DT_INT64", "tensorShape": {"dim": [{"size": "3"}]}}}, "dtype": {"type": "DT_INT64"}}}, {"name": "model_59/tf.reshape_35/Reshape/shape", "op": "Const", "attr": {"value": {"tensor": {"dtype": "DT_INT32", "tensorShape": {"dim": [{"size": "4"}]}}}, "dtype": {"type": "DT_INT32"}}}, {"name": "model_59/tf.compat.v1.transpose_234/transpose/perm", "op": "Const", "attr": {"value": {"tensor": {"dtype": "DT_INT32", "tensorShape": {"dim": [{"size": "4"}]}}}, "dtype": {"type": "DT_INT32"}}}, {"name": "model_59/tf.compat.v1.transpose_235/transpose/perm", "op": "Const", "attr": {"value": {"tensor": {"dtype": "DT_INT32", "tensorShape": {"dim": [{"size": "4"}]}}}, "dtype": {"type": "DT_INT32"}}}, {"name": "model_59/tf.nn.convolution_280/convolution/filter", "op": "Const", "attr": {"value": {"tensor": {"dtype": "DT_FLOAT", "tensorShape": {"dim": [{"size": "1"}, {"size": "1"}, {"size": "16"}, {"size": "1"}]}}}, "dtype": {"type": "DT_FLOAT"}}}, {"name": "model_59/tf.compat.v1.transpose_240/transpose/perm", "op": "Const", "attr": {"value": {"tensor": {"dtype": "DT_INT32", "tensorShape": {"dim": [{"size": "4"}]}}}, "dtype": {"type": "DT_INT32"}}}, {"name": "model_59/tf.reshape_38/Reshape/shape", "op": "Const", "attr": {"value": {"tensor": {"dtype": "DT_INT32", "tensorShape": {"dim": [{"size": "3"}]}}}, "dtype": {"type": "DT_INT32"}}}, {"name": "model_59/tf.strided_slice_41/ones_like/tensor", "op": "Const", "attr": {"value": {"tensor": {"dtype": "DT_INT64", "tensorShape": {"dim": [{"size": "3"}]}}}, "dtype": {"type": "DT_INT64"}}}, {"name": "model_59/tf.strided_slice_41/StridedSlice/end", "op": "Const", "attr": {"value": {"tensor": {"dtype": "DT_INT64", "tensorShape": {"dim": [{"size": "3"}]}}}, "dtype": {"type": "DT_INT64"}}}, {"name": "model_59/tf.strided_slice_41/ones_like", "op": "Const", "attr": {"value": {"tensor": {"dtype": "DT_INT64", "tensorShape": {"dim": [{"size": "3"}]}}}, "dtype": {"type": "DT_INT64"}}}, {"name": "model_59/tf.concat_51/concat/axis", "op": "Const", "attr": {"value": {"tensor": {"dtype": "DT_INT32", "tensorShape": {}}}, "dtype": {"type": "DT_INT32"}}}, {"name": "model_59/tf.math.multiply_604/Mul/y", "op": "Const", "attr": {"value": {"tensor": {"dtype": "DT_FLOAT", "tensorShape": {"dim": [{"size": "1"}, {"size": "1"}, {"size": "8400"}]}}}, "dtype": {"type": "DT_FLOAT"}}}, {"name": "model_59/tf.nn.convolution_249/convolution/filter", "op": "Const", "attr": {"value": {"tensor": {"dtype": "DT_FLOAT", "tensorShape": {"dim": [{"size": "3"}, {"size": "3"}, {"size": "64"}, {"size": "64"}]}}}, "dtype": {"type": "DT_FLOAT"}}}, {"name": "model_59/tf.math.add_171/Add/y", "op": "Const", "attr": {"value": {"tensor": {"dtype": "DT_FLOAT", "tensorShape": {"dim": [{"size": "64"}]}}}, "dtype": {"type": "DT_FLOAT"}}}, {"name": "model_59/tf.nn.convolution_251/convolution/filter", "op": "Const", "attr": {"value": {"tensor": {"dtype": "DT_FLOAT", "tensorShape": {"dim": [{"size": "3"}, {"size": "3"}, {"size": "64"}, {"size": "64"}]}}}, "dtype": {"type": "DT_FLOAT"}}}, {"name": "model_59/tf.math.add_173/Add/y", "op": "Const", "attr": {"value": {"tensor": {"dtype": "DT_FLOAT", "tensorShape": {"dim": [{"size": "64"}]}}}, "dtype": {"type": "DT_FLOAT"}}}, {"name": "model_59/tf.nn.convolution_256/convolution/filter", "op": "Const", "attr": {"value": {"tensor": {"dtype": "DT_FLOAT", "tensorShape": {"dim": [{"size": "1"}, {"size": "1"}, {"size": "64"}, {"size": "64"}]}}}, "dtype": {"type": "DT_FLOAT"}}}, {"name": "model_59/tf.math.add_178/Add/y", "op": "Const", "attr": {"value": {"tensor": {"dtype": "DT_FLOAT", "tensorShape": {"dim": [{"size": "64"}]}}}, "dtype": {"type": "DT_FLOAT"}}}, {"name": "model_59/tf.nn.convolution_250/convolution/filter", "op": "Const", "attr": {"value": {"tensor": {"dtype": "DT_FLOAT", "tensorShape": {"dim": [{"size": "3"}, {"size": "3"}, {"size": "64"}, {"size": "80"}]}}}, "dtype": {"type": "DT_FLOAT"}}}, {"name": "model_59/tf.math.add_172/Add/y", "op": "Const", "attr": {"value": {"tensor": {"dtype": "DT_FLOAT", "tensorShape": {"dim": [{"size": "80"}]}}}, "dtype": {"type": "DT_FLOAT"}}}, {"name": "model_59/tf.nn.convolution_254/convolution/filter", "op": "Const", "attr": {"value": {"tensor": {"dtype": "DT_FLOAT", "tensorShape": {"dim": [{"size": "3"}, {"size": "3"}, {"size": "80"}, {"size": "80"}]}}}, "dtype": {"type": "DT_FLOAT"}}}, {"name": "model_59/tf.math.add_176/Add/y", "op": "Const", "attr": {"value": {"tensor": {"dtype": "DT_FLOAT", "tensorShape": {"dim": [{"size": "80"}]}}}, "dtype": {"type": "DT_FLOAT"}}}, {"name": "model_59/tf.nn.convolution_259/convolution/filter", "op": "Const", "attr": {"value": {"tensor": {"dtype": "DT_FLOAT", "tensorShape": {"dim": [{"size": "1"}, {"size": "1"}, {"size": "80"}, {"size": "80"}]}}}, "dtype": {"type": "DT_FLOAT"}}}, {"name": "model_59/tf.math.add_181/Add/y", "op": "Const", "attr": {"value": {"tensor": {"dtype": "DT_FLOAT", "tensorShape": {"dim": [{"size": "80"}]}}}, "dtype": {"type": "DT_FLOAT"}}}, {"name": "model_59/tf.concat_41/concat/axis", "op": "Const", "attr": {"value": {"tensor": {"dtype": "DT_INT32", "tensorShape": {}}}, "dtype": {"type": "DT_INT32"}}}, {"name": "model_59/tf.compat.v1.transpose_201/transpose/perm", "op": "Const", "attr": {"value": {"tensor": {"dtype": "DT_INT32", "tensorShape": {"dim": [{"size": "4"}]}}}, "dtype": {"type": "DT_INT32"}}}, {"name": "model_59/tf.reshape_26/Reshape/shape", "op": "Const", "attr": {"value": {"tensor": {"dtype": "DT_INT32", "tensorShape": {"dim": [{"size": "3"}]}}}, "dtype": {"type": "DT_INT32"}}}, {"name": "model_59/tf.nn.convolution_264/convolution/filter", "op": "Const", "attr": {"value": {"tensor": {"dtype": "DT_FLOAT", "tensorShape": {"dim": [{"size": "3"}, {"size": "3"}, {"size": "128"}, {"size": "64"}]}}}, "dtype": {"type": "DT_FLOAT"}}}, {"name": "model_59/tf.math.add_186/Add/y", "op": "Const", "attr": {"value": {"tensor": {"dtype": "DT_FLOAT", "tensorShape": {"dim": [{"size": "64"}]}}}, "dtype": {"type": "DT_FLOAT"}}}, {"name": "model_59/tf.nn.convolution_266/convolution/filter", "op": "Const", "attr": {"value": {"tensor": {"dtype": "DT_FLOAT", "tensorShape": {"dim": [{"size": "3"}, {"size": "3"}, {"size": "64"}, {"size": "64"}]}}}, "dtype": {"type": "DT_FLOAT"}}}, {"name": "model_59/tf.math.add_188/Add/y", "op": "Const", "attr": {"value": {"tensor": {"dtype": "DT_FLOAT", "tensorShape": {"dim": [{"size": "64"}]}}}, "dtype": {"type": "DT_FLOAT"}}}, {"name": "model_59/tf.nn.convolution_269/convolution/filter", "op": "Const", "attr": {"value": {"tensor": {"dtype": "DT_FLOAT", "tensorShape": {"dim": [{"size": "1"}, {"size": "1"}, {"size": "64"}, {"size": "64"}]}}}, "dtype": {"type": "DT_FLOAT"}}}, {"name": "model_59/tf.math.add_191/Add/y", "op": "Const", "attr": {"value": {"tensor": {"dtype": "DT_FLOAT", "tensorShape": {"dim": [{"size": "64"}]}}}, "dtype": {"type": "DT_FLOAT"}}}, {"name": "model_59/tf.nn.convolution_265/convolution/filter", "op": "Const", "attr": {"value": {"tensor": {"dtype": "DT_FLOAT", "tensorShape": {"dim": [{"size": "3"}, {"size": "3"}, {"size": "128"}, {"size": "80"}]}}}, "dtype": {"type": "DT_FLOAT"}}}, {"name": "model_59/tf.math.add_187/Add/y", "op": "Const", "attr": {"value": {"tensor": {"dtype": "DT_FLOAT", "tensorShape": {"dim": [{"size": "80"}]}}}, "dtype": {"type": "DT_FLOAT"}}}, {"name": "model_59/tf.nn.convolution_267/convolution/filter", "op": "Const", "attr": {"value": {"tensor": {"dtype": "DT_FLOAT", "tensorShape": {"dim": [{"size": "3"}, {"size": "3"}, {"size": "80"}, {"size": "80"}]}}}, "dtype": {"type": "DT_FLOAT"}}}, {"name": "model_59/tf.math.add_189/Add/y", "op": "Const", "attr": {"value": {"tensor": {"dtype": "DT_FLOAT", "tensorShape": {"dim": [{"size": "80"}]}}}, "dtype": {"type": "DT_FLOAT"}}}, {"name": "model_59/tf.nn.convolution_270/convolution/filter", "op": "Const", "attr": {"value": {"tensor": {"dtype": "DT_FLOAT", "tensorShape": {"dim": [{"size": "1"}, {"size": "1"}, {"size": "80"}, {"size": "80"}]}}}, "dtype": {"type": "DT_FLOAT"}}}, {"name": "model_59/tf.math.add_192/Add/y", "op": "Const", "attr": {"value": {"tensor": {"dtype": "DT_FLOAT", "tensorShape": {"dim": [{"size": "80"}]}}}, "dtype": {"type": "DT_FLOAT"}}}, {"name": "model_59/tf.concat_44/concat/axis", "op": "Const", "attr": {"value": {"tensor": {"dtype": "DT_INT32", "tensorShape": {}}}, "dtype": {"type": "DT_INT32"}}}, {"name": "model_59/tf.compat.v1.transpose_215/transpose/perm", "op": "Const", "attr": {"value": {"tensor": {"dtype": "DT_INT32", "tensorShape": {"dim": [{"size": "4"}]}}}, "dtype": {"type": "DT_INT32"}}}, {"name": "model_59/tf.reshape_29/Reshape/shape", "op": "Const", "attr": {"value": {"tensor": {"dtype": "DT_INT32", "tensorShape": {"dim": [{"size": "3"}]}}}, "dtype": {"type": "DT_INT32"}}}, {"name": "model_59/tf.nn.convolution_274/convolution/filter", "op": "Const", "attr": {"value": {"tensor": {"dtype": "DT_FLOAT", "tensorShape": {"dim": [{"size": "3"}, {"size": "3"}, {"size": "256"}, {"size": "64"}]}}}, "dtype": {"type": "DT_FLOAT"}}}, {"name": "model_59/tf.math.add_196/Add/y", "op": "Const", "attr": {"value": {"tensor": {"dtype": "DT_FLOAT", "tensorShape": {"dim": [{"size": "64"}]}}}, "dtype": {"type": "DT_FLOAT"}}}, {"name": "model_59/tf.nn.convolution_276/convolution/filter", "op": "Const", "attr": {"value": {"tensor": {"dtype": "DT_FLOAT", "tensorShape": {"dim": [{"size": "3"}, {"size": "3"}, {"size": "64"}, {"size": "64"}]}}}, "dtype": {"type": "DT_FLOAT"}}}, {"name": "model_59/tf.math.add_198/Add/y", "op": "Const", "attr": {"value": {"tensor": {"dtype": "DT_FLOAT", "tensorShape": {"dim": [{"size": "64"}]}}}, "dtype": {"type": "DT_FLOAT"}}}, {"name": "model_59/tf.nn.convolution_278/convolution/filter", "op": "Const", "attr": {"value": {"tensor": {"dtype": "DT_FLOAT", "tensorShape": {"dim": [{"size": "1"}, {"size": "1"}, {"size": "64"}, {"size": "64"}]}}}, "dtype": {"type": "DT_FLOAT"}}}, {"name": "model_59/tf.math.add_200/Add/y", "op": "Const", "attr": {"value": {"tensor": {"dtype": "DT_FLOAT", "tensorShape": {"dim": [{"size": "64"}]}}}, "dtype": {"type": "DT_FLOAT"}}}, {"name": "model_59/tf.strided_slice_37/ones_like/tensor", "op": "Const", "attr": {"value": {"tensor": {"dtype": "DT_INT64", "tensorShape": {"dim": [{"size": "4"}]}}}, "dtype": {"type": "DT_INT64"}}}, {"name": "model_59/tf.strided_slice_37/StridedSlice/end", "op": "Const", "attr": {"value": {"tensor": {"dtype": "DT_INT64", "tensorShape": {"dim": [{"size": "4"}]}}}, "dtype": {"type": "DT_INT64"}}}, {"name": "model_59/tf.strided_slice_37/ones_like", "op": "Const", "attr": {"value": {"tensor": {"dtype": "DT_INT64", "tensorShape": {"dim": [{"size": "4"}]}}}, "dtype": {"type": "DT_INT64"}}}, {"name": "model_59/tf.strided_slice_35/ones_like/tensor", "op": "Const", "attr": {"value": {"tensor": {"dtype": "DT_INT64", "tensorShape": {"dim": [{"size": "4"}]}}}, "dtype": {"type": "DT_INT64"}}}, {"name": "model_59/tf.strided_slice_35/StridedSlice/end", "op": "Const", "attr": {"value": {"tensor": {"dtype": "DT_INT64", "tensorShape": {"dim": [{"size": "4"}]}}}, "dtype": {"type": "DT_INT64"}}}, {"name": "model_59/tf.strided_slice_35/ones_like", "op": "Const", "attr": {"value": {"tensor": {"dtype": "DT_INT64", "tensorShape": {"dim": [{"size": "4"}]}}}, "dtype": {"type": "DT_INT64"}}}, {"name": "model_59/tf.strided_slice_33/ones_like/tensor", "op": "Const", "attr": {"value": {"tensor": {"dtype": "DT_INT64", "tensorShape": {"dim": [{"size": "4"}]}}}, "dtype": {"type": "DT_INT64"}}}, {"name": "model_59/tf.strided_slice_33/StridedSlice/end", "op": "Const", "attr": {"value": {"tensor": {"dtype": "DT_INT64", "tensorShape": {"dim": [{"size": "4"}]}}}, "dtype": {"type": "DT_INT64"}}}, {"name": "model_59/tf.strided_slice_33/ones_like", "op": "Const", "attr": {"value": {"tensor": {"dtype": "DT_INT64", "tensorShape": {"dim": [{"size": "4"}]}}}, "dtype": {"type": "DT_INT64"}}}, {"name": "model_59/tf.image.resize_3/resize/size", "op": "Const", "attr": {"value": {"tensor": {"dtype": "DT_INT32", "tensorShape": {"dim": [{"size": "2"}]}}}, "dtype": {"type": "DT_INT32"}}}, {"name": "model_59/tf.concat_36/concat/axis", "op": "Const", "attr": {"value": {"tensor": {"dtype": "DT_INT32", "tensorShape": {}}}, "dtype": {"type": "DT_INT32"}}}, {"name": "model_59/tf.nn.convolution_244/convolution/filter", "op": "Const", "attr": {"value": {"tensor": {"dtype": "DT_FLOAT", "tensorShape": {"dim": [{"size": "1"}, {"size": "1"}, {"size": "192"}, {"size": "64"}]}}}, "dtype": {"type": "DT_FLOAT"}}}, {"name": "model_59/tf.math.add_166/Add/y", "op": "Const", "attr": {"value": {"tensor": {"dtype": "DT_FLOAT", "tensorShape": {"dim": [{"size": "64"}]}}}, "dtype": {"type": "DT_FLOAT"}}}, {"name": "model_59/tf.strided_slice_34/ones_like/tensor", "op": "Const", "attr": {"value": {"tensor": {"dtype": "DT_INT64", "tensorShape": {"dim": [{"size": "4"}]}}}, "dtype": {"type": "DT_INT64"}}}, {"name": "model_59/tf.strided_slice_34/StridedSlice/end", "op": "Const", "attr": {"value": {"tensor": {"dtype": "DT_INT64", "tensorShape": {"dim": [{"size": "4"}]}}}, "dtype": {"type": "DT_INT64"}}}, {"name": "model_59/tf.strided_slice_34/ones_like", "op": "Const", "attr": {"value": {"tensor": {"dtype": "DT_INT64", "tensorShape": {"dim": [{"size": "4"}]}}}, "dtype": {"type": "DT_INT64"}}}, {"name": "model_59/tf.nn.convolution_245/convolution/filter", "op": "Const", "attr": {"value": {"tensor": {"dtype": "DT_FLOAT", "tensorShape": {"dim": [{"size": "3"}, {"size": "3"}, {"size": "32"}, {"size": "32"}]}}}, "dtype": {"type": "DT_FLOAT"}}}, {"name": "model_59/tf.math.add_167/Add/y", "op": "Const", "attr": {"value": {"tensor": {"dtype": "DT_FLOAT", "tensorShape": {"dim": [{"size": "32"}]}}}, "dtype": {"type": "DT_FLOAT"}}}, {"name": "model_59/tf.nn.convolution_246/convolution/filter", "op": "Const", "attr": {"value": {"tensor": {"dtype": "DT_FLOAT", "tensorShape": {"dim": [{"size": "3"}, {"size": "3"}, {"size": "32"}, {"size": "32"}]}}}, "dtype": {"type": "DT_FLOAT"}}}, {"name": "model_59/tf.math.add_168/Add/y", "op": "Const", "attr": {"value": {"tensor": {"dtype": "DT_FLOAT", "tensorShape": {"dim": [{"size": "32"}]}}}, "dtype": {"type": "DT_FLOAT"}}}, {"name": "model_59/tf.concat_37/concat/axis", "op": "Const", "attr": {"value": {"tensor": {"dtype": "DT_INT32", "tensorShape": {}}}, "dtype": {"type": "DT_INT32"}}}, {"name": "model_59/tf.nn.convolution_247/convolution/filter", "op": "Const", "attr": {"value": {"tensor": {"dtype": "DT_FLOAT", "tensorShape": {"dim": [{"size": "1"}, {"size": "1"}, {"size": "96"}, {"size": "64"}]}}}, "dtype": {"type": "DT_FLOAT"}}}, {"name": "model_59/tf.math.add_169/Add/y", "op": "Const", "attr": {"value": {"tensor": {"dtype": "DT_FLOAT", "tensorShape": {"dim": [{"size": "64"}]}}}, "dtype": {"type": "DT_FLOAT"}}}, {"name": "model_59/tf.compat.v1.pad_12/Pad/paddings", "op": "Const", "attr": {"value": {"tensor": {"dtype": "DT_INT32", "tensorShape": {"dim": [{"size": "4"}, {"size": "2"}]}}}, "dtype": {"type": "DT_INT32"}}}, {"name": "model_59/tf.nn.convolution_248/convolution/filter", "op": "Const", "attr": {"value": {"tensor": {"dtype": "DT_FLOAT", "tensorShape": {"dim": [{"size": "3"}, {"size": "3"}, {"size": "64"}, {"size": "64"}]}}}, "dtype": {"type": "DT_FLOAT"}}}, {"name": "model_59/tf.math.add_170/Add/y", "op": "Const", "attr": {"value": {"tensor": {"dtype": "DT_FLOAT", "tensorShape": {"dim": [{"size": "64"}]}}}, "dtype": {"type": "DT_FLOAT"}}}, {"name": "model_59/tf.strided_slice_31/ones_like/tensor", "op": "Const", "attr": {"value": {"tensor": {"dtype": "DT_INT64", "tensorShape": {"dim": [{"size": "4"}]}}}, "dtype": {"type": "DT_INT64"}}}, {"name": "model_59/tf.strided_slice_31/StridedSlice/end", "op": "Const", "attr": {"value": {"tensor": {"dtype": "DT_INT64", "tensorShape": {"dim": [{"size": "4"}]}}}, "dtype": {"type": "DT_INT64"}}}, {"name": "model_59/tf.strided_slice_31/ones_like", "op": "Const", "attr": {"value": {"tensor": {"dtype": "DT_INT64", "tensorShape": {"dim": [{"size": "4"}]}}}, "dtype": {"type": "DT_INT64"}}}, {"name": "model_59/tf.image.resize_2/resize/size", "op": "Const", "attr": {"value": {"tensor": {"dtype": "DT_INT32", "tensorShape": {"dim": [{"size": "2"}]}}}, "dtype": {"type": "DT_INT32"}}}, {"name": "model_59/tf.concat_34/concat/axis", "op": "Const", "attr": {"value": {"tensor": {"dtype": "DT_INT32", "tensorShape": {}}}, "dtype": {"type": "DT_INT32"}}}, {"name": "model_59/tf.nn.convolution_240/convolution/filter", "op": "Const", "attr": {"value": {"tensor": {"dtype": "DT_FLOAT", "tensorShape": {"dim": [{"size": "1"}, {"size": "1"}, {"size": "384"}, {"size": "128"}]}}}, "dtype": {"type": "DT_FLOAT"}}}, {"name": "model_59/tf.math.add_162/Add/y", "op": "Const", "attr": {"value": {"tensor": {"dtype": "DT_FLOAT", "tensorShape": {"dim": [{"size": "128"}]}}}, "dtype": {"type": "DT_FLOAT"}}}, {"name": "model_59/tf.strided_slice_32/ones_like/tensor", "op": "Const", "attr": {"value": {"tensor": {"dtype": "DT_INT64", "tensorShape": {"dim": [{"size": "4"}]}}}, "dtype": {"type": "DT_INT64"}}}, {"name": "model_59/tf.strided_slice_32/StridedSlice/end", "op": "Const", "attr": {"value": {"tensor": {"dtype": "DT_INT64", "tensorShape": {"dim": [{"size": "4"}]}}}, "dtype": {"type": "DT_INT64"}}}, {"name": "model_59/tf.strided_slice_32/ones_like", "op": "Const", "attr": {"value": {"tensor": {"dtype": "DT_INT64", "tensorShape": {"dim": [{"size": "4"}]}}}, "dtype": {"type": "DT_INT64"}}}, {"name": "model_59/tf.nn.convolution_241/convolution/filter", "op": "Const", "attr": {"value": {"tensor": {"dtype": "DT_FLOAT", "tensorShape": {"dim": [{"size": "3"}, {"size": "3"}, {"size": "64"}, {"size": "64"}]}}}, "dtype": {"type": "DT_FLOAT"}}}, {"name": "model_59/tf.math.add_163/Add/y", "op": "Const", "attr": {"value": {"tensor": {"dtype": "DT_FLOAT", "tensorShape": {"dim": [{"size": "64"}]}}}, "dtype": {"type": "DT_FLOAT"}}}, {"name": "model_59/tf.nn.convolution_242/convolution/filter", "op": "Const", "attr": {"value": {"tensor": {"dtype": "DT_FLOAT", "tensorShape": {"dim": [{"size": "3"}, {"size": "3"}, {"size": "64"}, {"size": "64"}]}}}, "dtype": {"type": "DT_FLOAT"}}}, {"name": "model_59/tf.math.add_164/Add/y", "op": "Const", "attr": {"value": {"tensor": {"dtype": "DT_FLOAT", "tensorShape": {"dim": [{"size": "64"}]}}}, "dtype": {"type": "DT_FLOAT"}}}, {"name": "model_59/tf.concat_35/concat/axis", "op": "Const", "attr": {"value": {"tensor": {"dtype": "DT_INT32", "tensorShape": {}}}, "dtype": {"type": "DT_INT32"}}}, {"name": "model_59/tf.nn.convolution_243/convolution/filter", "op": "Const", "attr": {"value": {"tensor": {"dtype": "DT_FLOAT", "tensorShape": {"dim": [{"size": "1"}, {"size": "1"}, {"size": "192"}, {"size": "128"}]}}}, "dtype": {"type": "DT_FLOAT"}}}, {"name": "model_59/tf.math.add_165/Add/y", "op": "Const", "attr": {"value": {"tensor": {"dtype": "DT_FLOAT", "tensorShape": {"dim": [{"size": "128"}]}}}, "dtype": {"type": "DT_FLOAT"}}}, {"name": "model_59/tf.concat_38/concat/axis", "op": "Const", "attr": {"value": {"tensor": {"dtype": "DT_INT32", "tensorShape": {}}}, "dtype": {"type": "DT_INT32"}}}, {"name": "model_59/tf.nn.convolution_255/convolution/filter", "op": "Const", "attr": {"value": {"tensor": {"dtype": "DT_FLOAT", "tensorShape": {"dim": [{"size": "1"}, {"size": "1"}, {"size": "192"}, {"size": "128"}]}}}, "dtype": {"type": "DT_FLOAT"}}}, {"name": "model_59/tf.math.add_177/Add/y", "op": "Const", "attr": {"value": {"tensor": {"dtype": "DT_FLOAT", "tensorShape": {"dim": [{"size": "128"}]}}}, "dtype": {"type": "DT_FLOAT"}}}, {"name": "model_59/tf.strided_slice_36/ones_like/tensor", "op": "Const", "attr": {"value": {"tensor": {"dtype": "DT_INT64", "tensorShape": {"dim": [{"size": "4"}]}}}, "dtype": {"type": "DT_INT64"}}}, {"name": "model_59/tf.strided_slice_36/StridedSlice/end", "op": "Const", "attr": {"value": {"tensor": {"dtype": "DT_INT64", "tensorShape": {"dim": [{"size": "4"}]}}}, "dtype": {"type": "DT_INT64"}}}, {"name": "model_59/tf.strided_slice_36/ones_like", "op": "Const", "attr": {"value": {"tensor": {"dtype": "DT_INT64", "tensorShape": {"dim": [{"size": "4"}]}}}, "dtype": {"type": "DT_INT64"}}}, {"name": "model_59/tf.nn.convolution_260/convolution/filter", "op": "Const", "attr": {"value": {"tensor": {"dtype": "DT_FLOAT", "tensorShape": {"dim": [{"size": "3"}, {"size": "3"}, {"size": "64"}, {"size": "64"}]}}}, "dtype": {"type": "DT_FLOAT"}}}, {"name": "model_59/tf.math.add_182/Add/y", "op": "Const", "attr": {"value": {"tensor": {"dtype": "DT_FLOAT", "tensorShape": {"dim": [{"size": "64"}]}}}, "dtype": {"type": "DT_FLOAT"}}}, {"name": "model_59/tf.nn.convolution_261/convolution/filter", "op": "Const", "attr": {"value": {"tensor": {"dtype": "DT_FLOAT", "tensorShape": {"dim": [{"size": "3"}, {"size": "3"}, {"size": "64"}, {"size": "64"}]}}}, "dtype": {"type": "DT_FLOAT"}}}, {"name": "model_59/tf.math.add_183/Add/y", "op": "Const", "attr": {"value": {"tensor": {"dtype": "DT_FLOAT", "tensorShape": {"dim": [{"size": "64"}]}}}, "dtype": {"type": "DT_FLOAT"}}}, {"name": "model_59/tf.concat_42/concat/axis", "op": "Const", "attr": {"value": {"tensor": {"dtype": "DT_INT32", "tensorShape": {}}}, "dtype": {"type": "DT_INT32"}}}, {"name": "model_59/tf.nn.convolution_262/convolution/filter", "op": "Const", "attr": {"value": {"tensor": {"dtype": "DT_FLOAT", "tensorShape": {"dim": [{"size": "1"}, {"size": "1"}, {"size": "192"}, {"size": "128"}]}}}, "dtype": {"type": "DT_FLOAT"}}}, {"name": "model_59/tf.math.add_184/Add/y", "op": "Const", "attr": {"value": {"tensor": {"dtype": "DT_FLOAT", "tensorShape": {"dim": [{"size": "128"}]}}}, "dtype": {"type": "DT_FLOAT"}}}, {"name": "model_59/tf.compat.v1.pad_13/Pad/paddings", "op": "Const", "attr": {"value": {"tensor": {"dtype": "DT_INT32", "tensorShape": {"dim": [{"size": "4"}, {"size": "2"}]}}}, "dtype": {"type": "DT_INT32"}}}, {"name": "model_59/tf.nn.convolution_263/convolution/filter", "op": "Const", "attr": {"value": {"tensor": {"dtype": "DT_FLOAT", "tensorShape": {"dim": [{"size": "3"}, {"size": "3"}, {"size": "128"}, {"size": "128"}]}}}, "dtype": {"type": "DT_FLOAT"}}}, {"name": "model_59/tf.math.add_185/Add/y", "op": "Const", "attr": {"value": {"tensor": {"dtype": "DT_FLOAT", "tensorShape": {"dim": [{"size": "128"}]}}}, "dtype": {"type": "DT_FLOAT"}}}, {"name": "model_59/tf.strided_slice_29/ones_like/tensor", "op": "Const", "attr": {"value": {"tensor": {"dtype": "DT_INT64", "tensorShape": {"dim": [{"size": "4"}]}}}, "dtype": {"type": "DT_INT64"}}}, {"name": "model_59/tf.strided_slice_29/StridedSlice/end", "op": "Const", "attr": {"value": {"tensor": {"dtype": "DT_INT64", "tensorShape": {"dim": [{"size": "4"}]}}}, "dtype": {"type": "DT_INT64"}}}, {"name": "model_59/tf.strided_slice_29/ones_like", "op": "Const", "attr": {"value": {"tensor": {"dtype": "DT_INT64", "tensorShape": {"dim": [{"size": "4"}]}}}, "dtype": {"type": "DT_INT64"}}}, {"name": "model_59/tf.strided_slice_27/ones_like/tensor", "op": "Const", "attr": {"value": {"tensor": {"dtype": "DT_INT64", "tensorShape": {"dim": [{"size": "4"}]}}}, "dtype": {"type": "DT_INT64"}}}, {"name": "model_59/tf.strided_slice_27/StridedSlice/end", "op": "Const", "attr": {"value": {"tensor": {"dtype": "DT_INT64", "tensorShape": {"dim": [{"size": "4"}]}}}, "dtype": {"type": "DT_INT64"}}}, {"name": "model_59/tf.strided_slice_27/ones_like", "op": "Const", "attr": {"value": {"tensor": {"dtype": "DT_INT64", "tensorShape": {"dim": [{"size": "4"}]}}}, "dtype": {"type": "DT_INT64"}}}, {"name": "model_59/tf.strided_slice_25/ones_like/tensor", "op": "Const", "attr": {"value": {"tensor": {"dtype": "DT_INT64", "tensorShape": {"dim": [{"size": "4"}]}}}, "dtype": {"type": "DT_INT64"}}}, {"name": "model_59/tf.strided_slice_25/StridedSlice/end", "op": "Const", "attr": {"value": {"tensor": {"dtype": "DT_INT64", "tensorShape": {"dim": [{"size": "4"}]}}}, "dtype": {"type": "DT_INT64"}}}, {"name": "model_59/tf.strided_slice_25/ones_like", "op": "Const", "attr": {"value": {"tensor": {"dtype": "DT_INT64", "tensorShape": {"dim": [{"size": "4"}]}}}, "dtype": {"type": "DT_INT64"}}}, {"name": "model_59/tf.strided_slice_23/ones_like/tensor", "op": "Const", "attr": {"value": {"tensor": {"dtype": "DT_INT64", "tensorShape": {"dim": [{"size": "4"}]}}}, "dtype": {"type": "DT_INT64"}}}, {"name": "model_59/tf.strided_slice_23/StridedSlice/end", "op": "Const", "attr": {"value": {"tensor": {"dtype": "DT_INT64", "tensorShape": {"dim": [{"size": "4"}]}}}, "dtype": {"type": "DT_INT64"}}}, {"name": "model_59/tf.strided_slice_23/ones_like", "op": "Const", "attr": {"value": {"tensor": {"dtype": "DT_INT64", "tensorShape": {"dim": [{"size": "4"}]}}}, "dtype": {"type": "DT_INT64"}}}, {"name": "model_59/tf.compat.v1.pad_7/Pad/paddings", "op": "Const", "attr": {"value": {"tensor": {"dtype": "DT_INT32", "tensorShape": {"dim": [{"size": "4"}, {"size": "2"}]}}}, "dtype": {"type": "DT_INT32"}}}, {"name": "model_59/tf.nn.convolution_213/convolution/filter", "op": "Const", "attr": {"value": {"tensor": {"dtype": "DT_FLOAT", "tensorShape": {"dim": [{"size": "3"}, {"size": "3"}, {"size": "3"}, {"size": "16"}]}}}, "dtype": {"type": "DT_FLOAT"}}}, {"name": "model_59/tf.math.add_123/Add/y", "op": "Const", "attr": {"value": {"tensor": {"dtype": "DT_FLOAT", "tensorShape": {"dim": [{"size": "16"}]}}}, "dtype": {"type": "DT_FLOAT"}}}, {"name": "model_59/tf.compat.v1.pad_8/Pad/paddings", "op": "Const", "attr": {"value": {"tensor": {"dtype": "DT_INT32", "tensorShape": {"dim": [{"size": "4"}, {"size": "2"}]}}}, "dtype": {"type": "DT_INT32"}}}, {"name": "model_59/tf.nn.convolution_214/convolution/filter", "op": "Const", "attr": {"value": {"tensor": {"dtype": "DT_FLOAT", "tensorShape": {"dim": [{"size": "3"}, {"size": "3"}, {"size": "16"}, {"size": "32"}]}}}, "dtype": {"type": "DT_FLOAT"}}}, {"name": "model_59/tf.math.add_124/Add/y", "op": "Const", "attr": {"value": {"tensor": {"dtype": "DT_FLOAT", "tensorShape": {"dim": [{"size": "32"}]}}}, "dtype": {"type": "DT_FLOAT"}}}, {"name": "model_59/tf.nn.convolution_215/convolution/filter", "op": "Const", "attr": {"value": {"tensor": {"dtype": "DT_FLOAT", "tensorShape": {"dim": [{"size": "1"}, {"size": "1"}, {"size": "32"}, {"size": "32"}]}}}, "dtype": {"type": "DT_FLOAT"}}}, {"name": "model_59/tf.math.add_125/Add/y", "op": "Const", "attr": {"value": {"tensor": {"dtype": "DT_FLOAT", "tensorShape": {"dim": [{"size": "32"}]}}}, "dtype": {"type": "DT_FLOAT"}}}, {"name": "model_59/tf.strided_slice_24/ones_like/tensor", "op": "Const", "attr": {"value": {"tensor": {"dtype": "DT_INT64", "tensorShape": {"dim": [{"size": "4"}]}}}, "dtype": {"type": "DT_INT64"}}}, {"name": "model_59/tf.strided_slice_24/StridedSlice/end", "op": "Const", "attr": {"value": {"tensor": {"dtype": "DT_INT64", "tensorShape": {"dim": [{"size": "4"}]}}}, "dtype": {"type": "DT_INT64"}}}, {"name": "model_59/tf.strided_slice_24/ones_like", "op": "Const", "attr": {"value": {"tensor": {"dtype": "DT_INT64", "tensorShape": {"dim": [{"size": "4"}]}}}, "dtype": {"type": "DT_INT64"}}}, {"name": "model_59/tf.nn.convolution_216/convolution/filter", "op": "Const", "attr": {"value": {"tensor": {"dtype": "DT_FLOAT", "tensorShape": {"dim": [{"size": "3"}, {"size": "3"}, {"size": "16"}, {"size": "16"}]}}}, "dtype": {"type": "DT_FLOAT"}}}, {"name": "model_59/tf.math.add_126/Add/y", "op": "Const", "attr": {"value": {"tensor": {"dtype": "DT_FLOAT", "tensorShape": {"dim": [{"size": "16"}]}}}, "dtype": {"type": "DT_FLOAT"}}}, {"name": "model_59/tf.nn.convolution_217/convolution/filter", "op": "Const", "attr": {"value": {"tensor": {"dtype": "DT_FLOAT", "tensorShape": {"dim": [{"size": "3"}, {"size": "3"}, {"size": "16"}, {"size": "16"}]}}}, "dtype": {"type": "DT_FLOAT"}}}, {"name": "model_59/tf.math.add_127/Add/y", "op": "Const", "attr": {"value": {"tensor": {"dtype": "DT_FLOAT", "tensorShape": {"dim": [{"size": "16"}]}}}, "dtype": {"type": "DT_FLOAT"}}}, {"name": "model_59/tf.concat_29/concat/axis", "op": "Const", "attr": {"value": {"tensor": {"dtype": "DT_INT32", "tensorShape": {}}}, "dtype": {"type": "DT_INT32"}}}, {"name": "model_59/tf.nn.convolution_218/convolution/filter", "op": "Const", "attr": {"value": {"tensor": {"dtype": "DT_FLOAT", "tensorShape": {"dim": [{"size": "1"}, {"size": "1"}, {"size": "48"}, {"size": "32"}]}}}, "dtype": {"type": "DT_FLOAT"}}}, {"name": "model_59/tf.math.add_130/Add/y", "op": "Const", "attr": {"value": {"tensor": {"dtype": "DT_FLOAT", "tensorShape": {"dim": [{"size": "32"}]}}}, "dtype": {"type": "DT_FLOAT"}}}, {"name": "model_59/tf.compat.v1.pad_9/Pad/paddings", "op": "Const", "attr": {"value": {"tensor": {"dtype": "DT_INT32", "tensorShape": {"dim": [{"size": "4"}, {"size": "2"}]}}}, "dtype": {"type": "DT_INT32"}}}, {"name": "model_59/tf.nn.convolution_219/convolution/filter", "op": "Const", "attr": {"value": {"tensor": {"dtype": "DT_FLOAT", "tensorShape": {"dim": [{"size": "3"}, {"size": "3"}, {"size": "32"}, {"size": "64"}]}}}, "dtype": {"type": "DT_FLOAT"}}}, {"name": "model_59/tf.math.add_131/Add/y", "op": "Const", "attr": {"value": {"tensor": {"dtype": "DT_FLOAT", "tensorShape": {"dim": [{"size": "64"}]}}}, "dtype": {"type": "DT_FLOAT"}}}, {"name": "model_59/tf.nn.convolution_220/convolution/filter", "op": "Const", "attr": {"value": {"tensor": {"dtype": "DT_FLOAT", "tensorShape": {"dim": [{"size": "1"}, {"size": "1"}, {"size": "64"}, {"size": "64"}]}}}, "dtype": {"type": "DT_FLOAT"}}}, {"name": "model_59/tf.math.add_132/Add/y", "op": "Const", "attr": {"value": {"tensor": {"dtype": "DT_FLOAT", "tensorShape": {"dim": [{"size": "64"}]}}}, "dtype": {"type": "DT_FLOAT"}}}, {"name": "model_59/tf.strided_slice_26/ones_like/tensor", "op": "Const", "attr": {"value": {"tensor": {"dtype": "DT_INT64", "tensorShape": {"dim": [{"size": "4"}]}}}, "dtype": {"type": "DT_INT64"}}}, {"name": "model_59/tf.strided_slice_26/StridedSlice/end", "op": "Const", "attr": {"value": {"tensor": {"dtype": "DT_INT64", "tensorShape": {"dim": [{"size": "4"}]}}}, "dtype": {"type": "DT_INT64"}}}, {"name": "model_59/tf.strided_slice_26/ones_like", "op": "Const", "attr": {"value": {"tensor": {"dtype": "DT_INT64", "tensorShape": {"dim": [{"size": "4"}]}}}, "dtype": {"type": "DT_INT64"}}}, {"name": "model_59/tf.nn.convolution_221/convolution/filter", "op": "Const", "attr": {"value": {"tensor": {"dtype": "DT_FLOAT", "tensorShape": {"dim": [{"size": "3"}, {"size": "3"}, {"size": "32"}, {"size": "32"}]}}}, "dtype": {"type": "DT_FLOAT"}}}, {"name": "model_59/tf.math.add_133/Add/y", "op": "Const", "attr": {"value": {"tensor": {"dtype": "DT_FLOAT", "tensorShape": {"dim": [{"size": "32"}]}}}, "dtype": {"type": "DT_FLOAT"}}}, {"name": "model_59/tf.nn.convolution_222/convolution/filter", "op": "Const", "attr": {"value": {"tensor": {"dtype": "DT_FLOAT", "tensorShape": {"dim": [{"size": "3"}, {"size": "3"}, {"size": "32"}, {"size": "32"}]}}}, "dtype": {"type": "DT_FLOAT"}}}, {"name": "model_59/tf.math.add_134/Add/y", "op": "Const", "attr": {"value": {"tensor": {"dtype": "DT_FLOAT", "tensorShape": {"dim": [{"size": "32"}]}}}, "dtype": {"type": "DT_FLOAT"}}}, {"name": "model_59/tf.nn.convolution_223/convolution/filter", "op": "Const", "attr": {"value": {"tensor": {"dtype": "DT_FLOAT", "tensorShape": {"dim": [{"size": "3"}, {"size": "3"}, {"size": "32"}, {"size": "32"}]}}}, "dtype": {"type": "DT_FLOAT"}}}, {"name": "model_59/tf.math.add_137/Add/y", "op": "Const", "attr": {"value": {"tensor": {"dtype": "DT_FLOAT", "tensorShape": {"dim": [{"size": "32"}]}}}, "dtype": {"type": "DT_FLOAT"}}}, {"name": "model_59/tf.nn.convolution_224/convolution/filter", "op": "Const", "attr": {"value": {"tensor": {"dtype": "DT_FLOAT", "tensorShape": {"dim": [{"size": "3"}, {"size": "3"}, {"size": "32"}, {"size": "32"}]}}}, "dtype": {"type": "DT_FLOAT"}}}, {"name": "model_59/tf.math.add_138/Add/y", "op": "Const", "attr": {"value": {"tensor": {"dtype": "DT_FLOAT", "tensorShape": {"dim": [{"size": "32"}]}}}, "dtype": {"type": "DT_FLOAT"}}}, {"name": "model_59/tf.concat_30/concat/axis", "op": "Const", "attr": {"value": {"tensor": {"dtype": "DT_INT32", "tensorShape": {}}}, "dtype": {"type": "DT_INT32"}}}, {"name": "model_59/tf.nn.convolution_225/convolution/filter", "op": "Const", "attr": {"value": {"tensor": {"dtype": "DT_FLOAT", "tensorShape": {"dim": [{"size": "1"}, {"size": "1"}, {"size": "128"}, {"size": "64"}]}}}, "dtype": {"type": "DT_FLOAT"}}}, {"name": "model_59/tf.math.add_141/Add/y", "op": "Const", "attr": {"value": {"tensor": {"dtype": "DT_FLOAT", "tensorShape": {"dim": [{"size": "64"}]}}}, "dtype": {"type": "DT_FLOAT"}}}, {"name": "model_59/tf.compat.v1.pad_10/Pad/paddings", "op": "Const", "attr": {"value": {"tensor": {"dtype": "DT_INT32", "tensorShape": {"dim": [{"size": "4"}, {"size": "2"}]}}}, "dtype": {"type": "DT_INT32"}}}, {"name": "model_59/tf.nn.convolution_226/convolution/filter", "op": "Const", "attr": {"value": {"tensor": {"dtype": "DT_FLOAT", "tensorShape": {"dim": [{"size": "3"}, {"size": "3"}, {"size": "64"}, {"size": "128"}]}}}, "dtype": {"type": "DT_FLOAT"}}}, {"name": "model_59/tf.math.add_142/Add/y", "op": "Const", "attr": {"value": {"tensor": {"dtype": "DT_FLOAT", "tensorShape": {"dim": [{"size": "128"}]}}}, "dtype": {"type": "DT_FLOAT"}}}, {"name": "model_59/tf.nn.convolution_227/convolution/filter", "op": "Const", "attr": {"value": {"tensor": {"dtype": "DT_FLOAT", "tensorShape": {"dim": [{"size": "1"}, {"size": "1"}, {"size": "128"}, {"size": "128"}]}}}, "dtype": {"type": "DT_FLOAT"}}}, {"name": "model_59/tf.math.add_143/Add/y", "op": "Const", "attr": {"value": {"tensor": {"dtype": "DT_FLOAT", "tensorShape": {"dim": [{"size": "128"}]}}}, "dtype": {"type": "DT_FLOAT"}}}, {"name": "model_59/tf.strided_slice_28/ones_like/tensor", "op": "Const", "attr": {"value": {"tensor": {"dtype": "DT_INT64", "tensorShape": {"dim": [{"size": "4"}]}}}, "dtype": {"type": "DT_INT64"}}}, {"name": "model_59/tf.strided_slice_28/StridedSlice/end", "op": "Const", "attr": {"value": {"tensor": {"dtype": "DT_INT64", "tensorShape": {"dim": [{"size": "4"}]}}}, "dtype": {"type": "DT_INT64"}}}, {"name": "model_59/tf.strided_slice_28/ones_like", "op": "Const", "attr": {"value": {"tensor": {"dtype": "DT_INT64", "tensorShape": {"dim": [{"size": "4"}]}}}, "dtype": {"type": "DT_INT64"}}}, {"name": "model_59/tf.nn.convolution_228/convolution/filter", "op": "Const", "attr": {"value": {"tensor": {"dtype": "DT_FLOAT", "tensorShape": {"dim": [{"size": "3"}, {"size": "3"}, {"size": "64"}, {"size": "64"}]}}}, "dtype": {"type": "DT_FLOAT"}}}, {"name": "model_59/tf.math.add_144/Add/y", "op": "Const", "attr": {"value": {"tensor": {"dtype": "DT_FLOAT", "tensorShape": {"dim": [{"size": "64"}]}}}, "dtype": {"type": "DT_FLOAT"}}}, {"name": "model_59/tf.nn.convolution_229/convolution/filter", "op": "Const", "attr": {"value": {"tensor": {"dtype": "DT_FLOAT", "tensorShape": {"dim": [{"size": "3"}, {"size": "3"}, {"size": "64"}, {"size": "64"}]}}}, "dtype": {"type": "DT_FLOAT"}}}, {"name": "model_59/tf.math.add_145/Add/y", "op": "Const", "attr": {"value": {"tensor": {"dtype": "DT_FLOAT", "tensorShape": {"dim": [{"size": "64"}]}}}, "dtype": {"type": "DT_FLOAT"}}}, {"name": "model_59/tf.nn.convolution_230/convolution/filter", "op": "Const", "attr": {"value": {"tensor": {"dtype": "DT_FLOAT", "tensorShape": {"dim": [{"size": "3"}, {"size": "3"}, {"size": "64"}, {"size": "64"}]}}}, "dtype": {"type": "DT_FLOAT"}}}, {"name": "model_59/tf.math.add_148/Add/y", "op": "Const", "attr": {"value": {"tensor": {"dtype": "DT_FLOAT", "tensorShape": {"dim": [{"size": "64"}]}}}, "dtype": {"type": "DT_FLOAT"}}}, {"name": "model_59/tf.nn.convolution_231/convolution/filter", "op": "Const", "attr": {"value": {"tensor": {"dtype": "DT_FLOAT", "tensorShape": {"dim": [{"size": "3"}, {"size": "3"}, {"size": "64"}, {"size": "64"}]}}}, "dtype": {"type": "DT_FLOAT"}}}, {"name": "model_59/tf.math.add_149/Add/y", "op": "Const", "attr": {"value": {"tensor": {"dtype": "DT_FLOAT", "tensorShape": {"dim": [{"size": "64"}]}}}, "dtype": {"type": "DT_FLOAT"}}}, {"name": "model_59/tf.concat_31/concat/axis", "op": "Const", "attr": {"value": {"tensor": {"dtype": "DT_INT32", "tensorShape": {}}}, "dtype": {"type": "DT_INT32"}}}, {"name": "model_59/tf.nn.convolution_232/convolution/filter", "op": "Const", "attr": {"value": {"tensor": {"dtype": "DT_FLOAT", "tensorShape": {"dim": [{"size": "1"}, {"size": "1"}, {"size": "256"}, {"size": "128"}]}}}, "dtype": {"type": "DT_FLOAT"}}}, {"name": "model_59/tf.math.add_152/Add/y", "op": "Const", "attr": {"value": {"tensor": {"dtype": "DT_FLOAT", "tensorShape": {"dim": [{"size": "128"}]}}}, "dtype": {"type": "DT_FLOAT"}}}, {"name": "model_59/tf.compat.v1.pad_11/Pad/paddings", "op": "Const", "attr": {"value": {"tensor": {"dtype": "DT_INT32", "tensorShape": {"dim": [{"size": "4"}, {"size": "2"}]}}}, "dtype": {"type": "DT_INT32"}}}, {"name": "model_59/tf.nn.convolution_233/convolution/filter", "op": "Const", "attr": {"value": {"tensor": {"dtype": "DT_FLOAT", "tensorShape": {"dim": [{"size": "3"}, {"size": "3"}, {"size": "128"}, {"size": "256"}]}}}, "dtype": {"type": "DT_FLOAT"}}}, {"name": "model_59/tf.math.add_153/Add/y", "op": "Const", "attr": {"value": {"tensor": {"dtype": "DT_FLOAT", "tensorShape": {"dim": [{"size": "256"}]}}}, "dtype": {"type": "DT_FLOAT"}}}, {"name": "model_59/tf.nn.convolution_234/convolution/filter", "op": "Const", "attr": {"value": {"tensor": {"dtype": "DT_FLOAT", "tensorShape": {"dim": [{"size": "1"}, {"size": "1"}, {"size": "256"}, {"size": "256"}]}}}, "dtype": {"type": "DT_FLOAT"}}}, {"name": "model_59/tf.math.add_154/Add/y", "op": "Const", "attr": {"value": {"tensor": {"dtype": "DT_FLOAT", "tensorShape": {"dim": [{"size": "256"}]}}}, "dtype": {"type": "DT_FLOAT"}}}, {"name": "model_59/tf.strided_slice_30/ones_like/tensor", "op": "Const", "attr": {"value": {"tensor": {"dtype": "DT_INT64", "tensorShape": {"dim": [{"size": "4"}]}}}, "dtype": {"type": "DT_INT64"}}}, {"name": "model_59/tf.strided_slice_30/StridedSlice/end", "op": "Const", "attr": {"value": {"tensor": {"dtype": "DT_INT64", "tensorShape": {"dim": [{"size": "4"}]}}}, "dtype": {"type": "DT_INT64"}}}, {"name": "model_59/tf.strided_slice_30/ones_like", "op": "Const", "attr": {"value": {"tensor": {"dtype": "DT_INT64", "tensorShape": {"dim": [{"size": "4"}]}}}, "dtype": {"type": "DT_INT64"}}}, {"name": "model_59/tf.nn.convolution_235/convolution/filter", "op": "Const", "attr": {"value": {"tensor": {"dtype": "DT_FLOAT", "tensorShape": {"dim": [{"size": "3"}, {"size": "3"}, {"size": "128"}, {"size": "128"}]}}}, "dtype": {"type": "DT_FLOAT"}}}, {"name": "model_59/tf.math.add_155/Add/y", "op": "Const", "attr": {"value": {"tensor": {"dtype": "DT_FLOAT", "tensorShape": {"dim": [{"size": "128"}]}}}, "dtype": {"type": "DT_FLOAT"}}}, {"name": "model_59/tf.nn.convolution_236/convolution/filter", "op": "Const", "attr": {"value": {"tensor": {"dtype": "DT_FLOAT", "tensorShape": {"dim": [{"size": "3"}, {"size": "3"}, {"size": "128"}, {"size": "128"}]}}}, "dtype": {"type": "DT_FLOAT"}}}, {"name": "model_59/tf.math.add_156/Add/y", "op": "Const", "attr": {"value": {"tensor": {"dtype": "DT_FLOAT", "tensorShape": {"dim": [{"size": "128"}]}}}, "dtype": {"type": "DT_FLOAT"}}}, {"name": "model_59/tf.concat_32/concat/axis", "op": "Const", "attr": {"value": {"tensor": {"dtype": "DT_INT32", "tensorShape": {}}}, "dtype": {"type": "DT_INT32"}}}, {"name": "model_59/tf.nn.convolution_237/convolution/filter", "op": "Const", "attr": {"value": {"tensor": {"dtype": "DT_FLOAT", "tensorShape": {"dim": [{"size": "1"}, {"size": "1"}, {"size": "384"}, {"size": "256"}]}}}, "dtype": {"type": "DT_FLOAT"}}}, {"name": "model_59/tf.math.add_159/Add/y", "op": "Const", "attr": {"value": {"tensor": {"dtype": "DT_FLOAT", "tensorShape": {"dim": [{"size": "256"}]}}}, "dtype": {"type": "DT_FLOAT"}}}, {"name": "model_59/tf.nn.convolution_238/convolution/filter", "op": "Const", "attr": {"value": {"tensor": {"dtype": "DT_FLOAT", "tensorShape": {"dim": [{"size": "1"}, {"size": "1"}, {"size": "256"}, {"size": "128"}]}}}, "dtype": {"type": "DT_FLOAT"}}}, {"name": "model_59/tf.math.add_160/Add/y", "op": "Const", "attr": {"value": {"tensor": {"dtype": "DT_FLOAT", "tensorShape": {"dim": [{"size": "128"}]}}}, "dtype": {"type": "DT_FLOAT"}}}, {"name": "model_59/tf.concat_33/concat/axis", "op": "Const", "attr": {"value": {"tensor": {"dtype": "DT_INT32", "tensorShape": {}}}, "dtype": {"type": "DT_INT32"}}}, {"name": "model_59/tf.nn.convolution_239/convolution/filter", "op": "Const", "attr": {"value": {"tensor": {"dtype": "DT_FLOAT", "tensorShape": {"dim": [{"size": "1"}, {"size": "1"}, {"size": "512"}, {"size": "256"}]}}}, "dtype": {"type": "DT_FLOAT"}}}, {"name": "model_59/tf.math.add_161/Add/y", "op": "Const", "attr": {"value": {"tensor": {"dtype": "DT_FLOAT", "tensorShape": {"dim": [{"size": "256"}]}}}, "dtype": {"type": "DT_FLOAT"}}}, {"name": "model_59/tf.concat_43/concat/axis", "op": "Const", "attr": {"value": {"tensor": {"dtype": "DT_INT32", "tensorShape": {}}}, "dtype": {"type": "DT_INT32"}}}, {"name": "model_59/tf.nn.convolution_268/convolution/filter", "op": "Const", "attr": {"value": {"tensor": {"dtype": "DT_FLOAT", "tensorShape": {"dim": [{"size": "1"}, {"size": "1"}, {"size": "384"}, {"size": "256"}]}}}, "dtype": {"type": "DT_FLOAT"}}}, {"name": "model_59/tf.math.add_190/Add/y", "op": "Const", "attr": {"value": {"tensor": {"dtype": "DT_FLOAT", "tensorShape": {"dim": [{"size": "256"}]}}}, "dtype": {"type": "DT_FLOAT"}}}, {"name": "model_59/tf.strided_slice_38/ones_like/tensor", "op": "Const", "attr": {"value": {"tensor": {"dtype": "DT_INT64", "tensorShape": {"dim": [{"size": "4"}]}}}, "dtype": {"type": "DT_INT64"}}}, {"name": "model_59/tf.strided_slice_38/StridedSlice/end", "op": "Const", "attr": {"value": {"tensor": {"dtype": "DT_INT64", "tensorShape": {"dim": [{"size": "4"}]}}}, "dtype": {"type": "DT_INT64"}}}, {"name": "model_59/tf.strided_slice_38/ones_like", "op": "Const", "attr": {"value": {"tensor": {"dtype": "DT_INT64", "tensorShape": {"dim": [{"size": "4"}]}}}, "dtype": {"type": "DT_INT64"}}}, {"name": "model_59/tf.nn.convolution_271/convolution/filter", "op": "Const", "attr": {"value": {"tensor": {"dtype": "DT_FLOAT", "tensorShape": {"dim": [{"size": "3"}, {"size": "3"}, {"size": "128"}, {"size": "128"}]}}}, "dtype": {"type": "DT_FLOAT"}}}, {"name": "model_59/tf.math.add_193/Add/y", "op": "Const", "attr": {"value": {"tensor": {"dtype": "DT_FLOAT", "tensorShape": {"dim": [{"size": "128"}]}}}, "dtype": {"type": "DT_FLOAT"}}}, {"name": "model_59/tf.nn.convolution_272/convolution/filter", "op": "Const", "attr": {"value": {"tensor": {"dtype": "DT_FLOAT", "tensorShape": {"dim": [{"size": "3"}, {"size": "3"}, {"size": "128"}, {"size": "128"}]}}}, "dtype": {"type": "DT_FLOAT"}}}, {"name": "model_59/tf.math.add_194/Add/y", "op": "Const", "attr": {"value": {"tensor": {"dtype": "DT_FLOAT", "tensorShape": {"dim": [{"size": "128"}]}}}, "dtype": {"type": "DT_FLOAT"}}}, {"name": "model_59/tf.concat_45/concat/axis", "op": "Const", "attr": {"value": {"tensor": {"dtype": "DT_INT32", "tensorShape": {}}}, "dtype": {"type": "DT_INT32"}}}, {"name": "model_59/tf.nn.convolution_273/convolution/filter", "op": "Const", "attr": {"value": {"tensor": {"dtype": "DT_FLOAT", "tensorShape": {"dim": [{"size": "1"}, {"size": "1"}, {"size": "384"}, {"size": "256"}]}}}, "dtype": {"type": "DT_FLOAT"}}}, {"name": "model_59/tf.math.add_195/Add/y", "op": "Const", "attr": {"value": {"tensor": {"dtype": "DT_FLOAT", "tensorShape": {"dim": [{"size": "256"}]}}}, "dtype": {"type": "DT_FLOAT"}}}, {"name": "model_59/tf.nn.convolution_275/convolution/filter", "op": "Const", "attr": {"value": {"tensor": {"dtype": "DT_FLOAT", "tensorShape": {"dim": [{"size": "3"}, {"size": "3"}, {"size": "256"}, {"size": "80"}]}}}, "dtype": {"type": "DT_FLOAT"}}}, {"name": "model_59/tf.math.add_197/Add/y", "op": "Const", "attr": {"value": {"tensor": {"dtype": "DT_FLOAT", "tensorShape": {"dim": [{"size": "80"}]}}}, "dtype": {"type": "DT_FLOAT"}}}, {"name": "model_59/tf.nn.convolution_277/convolution/filter", "op": "Const", "attr": {"value": {"tensor": {"dtype": "DT_FLOAT", "tensorShape": {"dim": [{"size": "3"}, {"size": "3"}, {"size": "80"}, {"size": "80"}]}}}, "dtype": {"type": "DT_FLOAT"}}}, {"name": "model_59/tf.math.add_199/Add/y", "op": "Const", "attr": {"value": {"tensor": {"dtype": "DT_FLOAT", "tensorShape": {"dim": [{"size": "80"}]}}}, "dtype": {"type": "DT_FLOAT"}}}, {"name": "model_59/tf.nn.convolution_279/convolution/filter", "op": "Const", "attr": {"value": {"tensor": {"dtype": "DT_FLOAT", "tensorShape": {"dim": [{"size": "1"}, {"size": "1"}, {"size": "80"}, {"size": "80"}]}}}, "dtype": {"type": "DT_FLOAT"}}}, {"name": "model_59/tf.math.add_201/Add/y", "op": "Const", "attr": {"value": {"tensor": {"dtype": "DT_FLOAT", "tensorShape": {"dim": [{"size": "80"}]}}}, "dtype": {"type": "DT_FLOAT"}}}, {"name": "model_59/tf.concat_46/concat/axis", "op": "Const", "attr": {"value": {"tensor": {"dtype": "DT_INT32", "tensorShape": {}}}, "dtype": {"type": "DT_INT32"}}}, {"name": "model_59/tf.compat.v1.transpose_227/transpose/perm", "op": "Const", "attr": {"value": {"tensor": {"dtype": "DT_INT32", "tensorShape": {"dim": [{"size": "4"}]}}}, "dtype": {"type": "DT_INT32"}}}, {"name": "model_59/tf.reshape_32/Reshape/shape", "op": "Const", "attr": {"value": {"tensor": {"dtype": "DT_INT32", "tensorShape": {"dim": [{"size": "3"}]}}}, "dtype": {"type": "DT_INT32"}}}, {"name": "model_59/tf.concat_47/concat/axis", "op": "Const", "attr": {"value": {"tensor": {"dtype": "DT_INT32", "tensorShape": {}}}, "dtype": {"type": "DT_INT32"}}}, {"name": "model_59/tf.strided_slice_40/StridedSlice/begin", "op": "Const", "attr": {"value": {"tensor": {"dtype": "DT_INT64", "tensorShape": {"dim": [{"size": "3"}]}}}, "dtype": {"type": "DT_INT64"}}}, {"name": "model_59/tf.strided_slice_40/StridedSlice/end", "op": "Const", "attr": {"value": {"tensor": {"dtype": "DT_INT64", "tensorShape": {"dim": [{"size": "3"}]}}}, "dtype": {"type": "DT_INT64"}}}, {"name": "model_59/tf.strided_slice_40/StridedSlice/strides", "op": "Const", "attr": {"value": {"tensor": {"dtype": "DT_INT64", "tensorShape": {"dim": [{"size": "3"}]}}}, "dtype": {"type": "DT_INT64"}}}, {"name": "model_59/output0/concat/axis", "op": "Const", "attr": {"value": {"tensor": {"dtype": "DT_INT32", "tensorShape": {}}}, "dtype": {"type": "DT_INT32"}}}, {"name": "x", "op": "Placeholder", "attr": {"shape": {"shape": {"dim": [{"size": "1"}, {"size": "640"}, {"size": "640"}, {"size": "3"}]}}, "dtype": {"type": "DT_FLOAT"}}}, {"name": "model_59/tf.compat.v1.pad_7/Pad", "op": "Pad", "input": ["x", "model_59/tf.compat.v1.pad_7/Pad/paddings"], "attr": {"Tpaddings": {"type": "DT_INT32"}, "T": {"type": "DT_FLOAT"}}}, {"name": "model_59/tf.math.add_123/Add", "op": "_FusedConv2D", "input": ["model_59/tf.compat.v1.pad_7/Pad", "model_59/tf.nn.convolution_213/convolution/filter", "model_59/tf.math.add_123/Add/y"], "device": "/device:CPU:0", "attr": {"num_host_args": {"i": "0"}, "data_format": {"s": "TkhXQw=="}, "filter_format": {"s": "SFdJTw=="}, "fused_ops": {"list": {"s": ["Qmlhc0FkZA=="]}}, "num_args": {"i": "1"}, "strides": {"list": {"i": ["1", "2", "2", "1"]}}, "TArgs": {"list": {"type": ["DT_FLOAT"]}}, "padding": {"s": "VkFMSUQ="}, "use_cudnn_on_gpu": {"b": true}, "leakyrelu_alpha": {"f": 0.2}, "epsilon": {"f": 0.0}, "T": {"type": "DT_FLOAT"}, "explicit_paddings": {"list": {}}, "dilations": {"list": {"i": ["1", "1", "1", "1"]}}}}, {"name": "model_59/tf.math.sigmoid_78/Sigmoid", "op": "Sigmoid", "input": ["model_59/tf.math.add_123/Add"], "attr": {"T": {"type": "DT_FLOAT"}}}, {"name": "model_59/tf.math.multiply_355/Mul", "op": "Mul", "input": ["model_59/tf.math.add_123/Add", "model_59/tf.math.sigmoid_78/Sigmoid"], "attr": {"T": {"type": "DT_FLOAT"}}}, {"name": "model_59/tf.compat.v1.pad_8/Pad", "op": "Pad", "input": ["model_59/tf.math.multiply_355/Mul", "model_59/tf.compat.v1.pad_8/Pad/paddings"], "attr": {"Tpaddings": {"type": "DT_INT32"}, "T": {"type": "DT_FLOAT"}}}, {"name": "model_59/tf.math.add_124/Add", "op": "_FusedConv2D", "input": ["model_59/tf.compat.v1.pad_8/Pad", "model_59/tf.nn.convolution_214/convolution/filter", "model_59/tf.math.add_124/Add/y"], "device": "/device:CPU:0", "attr": {"num_host_args": {"i": "0"}, "data_format": {"s": "TkhXQw=="}, "filter_format": {"s": "SFdJTw=="}, "strides": {"list": {"i": ["1", "2", "2", "1"]}}, "num_args": {"i": "1"}, "fused_ops": {"list": {"s": ["Qmlhc0FkZA=="]}}, "TArgs": {"list": {"type": ["DT_FLOAT"]}}, "padding": {"s": "VkFMSUQ="}, "use_cudnn_on_gpu": {"b": true}, "leakyrelu_alpha": {"f": 0.2}, "epsilon": {"f": 0.0}, "T": {"type": "DT_FLOAT"}, "explicit_paddings": {"list": {}}, "dilations": {"list": {"i": ["1", "1", "1", "1"]}}}}, {"name": "model_59/tf.math.sigmoid_79/Sigmoid", "op": "Sigmoid", "input": ["model_59/tf.math.add_124/Add"], "attr": {"T": {"type": "DT_FLOAT"}}}, {"name": "model_59/tf.math.multiply_359/Mul", "op": "Mul", "input": ["model_59/tf.math.add_124/Add", "model_59/tf.math.sigmoid_79/Sigmoid"], "attr": {"T": {"type": "DT_FLOAT"}}}, {"name": "model_59/tf.math.add_125/Add", "op": "_FusedConv2D", "input": ["model_59/tf.math.multiply_359/Mul", "model_59/tf.nn.convolution_215/convolution/filter", "model_59/tf.math.add_125/Add/y"], "device": "/device:CPU:0", "attr": {"num_host_args": {"i": "0"}, "data_format": {"s": "TkhXQw=="}, "filter_format": {"s": "SFdJTw=="}, "strides": {"list": {"i": ["1", "1", "1", "1"]}}, "num_args": {"i": "1"}, "fused_ops": {"list": {"s": ["Qmlhc0FkZA=="]}}, "TArgs": {"list": {"type": ["DT_FLOAT"]}}, "padding": {"s": "U0FNRQ=="}, "use_cudnn_on_gpu": {"b": true}, "leakyrelu_alpha": {"f": 0.2}, "epsilon": {"f": 0.0}, "T": {"type": "DT_FLOAT"}, "explicit_paddings": {"list": {}}, "dilations": {"list": {"i": ["1", "1", "1", "1"]}}}}, {"name": "model_59/tf.math.sigmoid_80/Sigmoid", "op": "Sigmoid", "input": ["model_59/tf.math.add_125/Add"], "attr": {"T": {"type": "DT_FLOAT"}}}, {"name": "model_59/tf.math.multiply_363/Mul", "op": "Mul", "input": ["model_59/tf.math.add_125/Add", "model_59/tf.math.sigmoid_80/Sigmoid"], "attr": {"T": {"type": "DT_FLOAT"}}}, {"name": "model_59/tf.strided_slice_23/StridedSlice", "op": "StridedSlice", "input": ["model_59/tf.math.multiply_363/Mul", "model_59/tf.strided_slice_23/ones_like/tensor", "model_59/tf.strided_slice_23/StridedSlice/end", "model_59/tf.strided_slice_23/ones_like"], "attr": {"shrink_axis_mask": {"i": "0"}, "Index": {"type": "DT_INT64"}, "new_axis_mask": {"i": "0"}, "begin_mask": {"i": "15"}, "T": {"type": "DT_FLOAT"}, "end_mask": {"i": "7"}, "ellipsis_mask": {"i": "0"}}}, {"name": "model_59/tf.strided_slice_24/StridedSlice", "op": "StridedSlice", "input": ["model_59/tf.math.multiply_363/Mul", "model_59/tf.strided_slice_24/ones_like/tensor", "model_59/tf.strided_slice_24/StridedSlice/end", "model_59/tf.strided_slice_24/ones_like"], "attr": {"shrink_axis_mask": {"i": "0"}, "Index": {"type": "DT_INT64"}, "new_axis_mask": {"i": "0"}, "begin_mask": {"i": "7"}, "T": {"type": "DT_FLOAT"}, "end_mask": {"i": "7"}, "ellipsis_mask": {"i": "0"}}}, {"name": "model_59/tf.math.add_126/Add", "op": "_FusedConv2D", "input": ["model_59/tf.strided_slice_24/StridedSlice", "model_59/tf.nn.convolution_216/convolution/filter", "model_59/tf.math.add_126/Add/y"], "device": "/device:CPU:0", "attr": {"num_host_args": {"i": "0"}, "data_format": {"s": "TkhXQw=="}, "filter_format": {"s": "SFdJTw=="}, "strides": {"list": {"i": ["1", "1", "1", "1"]}}, "num_args": {"i": "1"}, "fused_ops": {"list": {"s": ["Qmlhc0FkZA=="]}}, "TArgs": {"list": {"type": ["DT_FLOAT"]}}, "padding": {"s": "U0FNRQ=="}, "use_cudnn_on_gpu": {"b": true}, "leakyrelu_alpha": {"f": 0.2}, "epsilon": {"f": 0.0}, "T": {"type": "DT_FLOAT"}, "explicit_paddings": {"list": {}}, "dilations": {"list": {"i": ["1", "1", "1", "1"]}}}}, {"name": "model_59/tf.math.sigmoid_81/Sigmoid", "op": "Sigmoid", "input": ["model_59/tf.math.add_126/Add"], "attr": {"T": {"type": "DT_FLOAT"}}}, {"name": "model_59/tf.math.multiply_367/Mul", "op": "Mul", "input": ["model_59/tf.math.add_126/Add", "model_59/tf.math.sigmoid_81/Sigmoid"], "attr": {"T": {"type": "DT_FLOAT"}}}, {"name": "model_59/tf.math.add_127/Add", "op": "_FusedConv2D", "input": ["model_59/tf.math.multiply_367/Mul", "model_59/tf.nn.convolution_217/convolution/filter", "model_59/tf.math.add_127/Add/y"], "device": "/device:CPU:0", "attr": {"num_host_args": {"i": "0"}, "data_format": {"s": "TkhXQw=="}, "filter_format": {"s": "SFdJTw=="}, "fused_ops": {"list": {"s": ["Qmlhc0FkZA=="]}}, "num_args": {"i": "1"}, "strides": {"list": {"i": ["1", "1", "1", "1"]}}, "TArgs": {"list": {"type": ["DT_FLOAT"]}}, "padding": {"s": "U0FNRQ=="}, "use_cudnn_on_gpu": {"b": true}, "leakyrelu_alpha": {"f": 0.2}, "epsilon": {"f": 0.0}, "T": {"type": "DT_FLOAT"}, "explicit_paddings": {"list": {}}, "dilations": {"list": {"i": ["1", "1", "1", "1"]}}}}, {"name": "model_59/tf.math.sigmoid_82/Sigmoid", "op": "Sigmoid", "input": ["model_59/tf.math.add_127/Add"], "attr": {"T": {"type": "DT_FLOAT"}}}, {"name": "model_59/tf.math.multiply_371/Mul", "op": "Mul", "input": ["model_59/tf.math.add_127/Add", "model_59/tf.math.sigmoid_82/Sigmoid"], "attr": {"T": {"type": "DT_FLOAT"}}}, {"name": "model_59/tf.math.add_129/Add", "op": "AddV2", "input": ["model_59/tf.strided_slice_24/StridedSlice", "model_59/tf.math.multiply_371/Mul"], "attr": {"T": {"type": "DT_FLOAT"}}}, {"name": "model_59/tf.concat_29/concat", "op": "ConcatV2", "input": ["model_59/tf.strided_slice_23/StridedSlice", "model_59/tf.strided_slice_24/StridedSlice", "model_59/tf.math.add_129/Add", "model_59/tf.concat_29/concat/axis"], "attr": {"N": {"i": "3"}, "T": {"type": "DT_FLOAT"}, "Tidx": {"type": "DT_INT32"}}}, {"name": "model_59/tf.math.add_130/Add", "op": "_FusedConv2D", "input": ["model_59/tf.concat_29/concat", "model_59/tf.nn.convolution_218/convolution/filter", "model_59/tf.math.add_130/Add/y"], "device": "/device:CPU:0", "attr": {"num_host_args": {"i": "0"}, "data_format": {"s": "TkhXQw=="}, "filter_format": {"s": "SFdJTw=="}, "fused_ops": {"list": {"s": ["Qmlhc0FkZA=="]}}, "num_args": {"i": "1"}, "strides": {"list": {"i": ["1", "1", "1", "1"]}}, "TArgs": {"list": {"type": ["DT_FLOAT"]}}, "padding": {"s": "U0FNRQ=="}, "use_cudnn_on_gpu": {"b": true}, "leakyrelu_alpha": {"f": 0.2}, "epsilon": {"f": 0.0}, "T": {"type": "DT_FLOAT"}, "explicit_paddings": {"list": {}}, "dilations": {"list": {"i": ["1", "1", "1", "1"]}}}}, {"name": "model_59/tf.math.sigmoid_83/Sigmoid", "op": "Sigmoid", "input": ["model_59/tf.math.add_130/Add"], "attr": {"T": {"type": "DT_FLOAT"}}}, {"name": "model_59/tf.math.multiply_377/Mul", "op": "Mul", "input": ["model_59/tf.math.add_130/Add", "model_59/tf.math.sigmoid_83/Sigmoid"], "attr": {"T": {"type": "DT_FLOAT"}}}, {"name": "model_59/tf.compat.v1.pad_9/Pad", "op": "Pad", "input": ["model_59/tf.math.multiply_377/Mul", "model_59/tf.compat.v1.pad_9/Pad/paddings"], "attr": {"Tpaddings": {"type": "DT_INT32"}, "T": {"type": "DT_FLOAT"}}}, {"name": "model_59/tf.math.add_131/Add", "op": "_FusedConv2D", "input": ["model_59/tf.compat.v1.pad_9/Pad", "model_59/tf.nn.convolution_219/convolution/filter", "model_59/tf.math.add_131/Add/y"], "device": "/device:CPU:0", "attr": {"num_host_args": {"i": "0"}, "data_format": {"s": "TkhXQw=="}, "filter_format": {"s": "SFdJTw=="}, "strides": {"list": {"i": ["1", "2", "2", "1"]}}, "num_args": {"i": "1"}, "fused_ops": {"list": {"s": ["Qmlhc0FkZA=="]}}, "TArgs": {"list": {"type": ["DT_FLOAT"]}}, "padding": {"s": "VkFMSUQ="}, "use_cudnn_on_gpu": {"b": true}, "leakyrelu_alpha": {"f": 0.2}, "epsilon": {"f": 0.0}, "T": {"type": "DT_FLOAT"}, "explicit_paddings": {"list": {}}, "dilations": {"list": {"i": ["1", "1", "1", "1"]}}}}, {"name": "model_59/tf.math.sigmoid_84/Sigmoid", "op": "Sigmoid", "input": ["model_59/tf.math.add_131/Add"], "attr": {"T": {"type": "DT_FLOAT"}}}, {"name": "model_59/tf.math.multiply_381/Mul", "op": "Mul", "input": ["model_59/tf.math.add_131/Add", "model_59/tf.math.sigmoid_84/Sigmoid"], "attr": {"T": {"type": "DT_FLOAT"}}}, {"name": "model_59/tf.math.add_132/Add", "op": "_FusedConv2D", "input": ["model_59/tf.math.multiply_381/Mul", "model_59/tf.nn.convolution_220/convolution/filter", "model_59/tf.math.add_132/Add/y"], "device": "/device:CPU:0", "attr": {"num_host_args": {"i": "0"}, "data_format": {"s": "TkhXQw=="}, "filter_format": {"s": "SFdJTw=="}, "fused_ops": {"list": {"s": ["Qmlhc0FkZA=="]}}, "num_args": {"i": "1"}, "strides": {"list": {"i": ["1", "1", "1", "1"]}}, "TArgs": {"list": {"type": ["DT_FLOAT"]}}, "padding": {"s": "U0FNRQ=="}, "use_cudnn_on_gpu": {"b": true}, "leakyrelu_alpha": {"f": 0.2}, "epsilon": {"f": 0.0}, "T": {"type": "DT_FLOAT"}, "explicit_paddings": {"list": {}}, "dilations": {"list": {"i": ["1", "1", "1", "1"]}}}}, {"name": "model_59/tf.math.sigmoid_85/Sigmoid", "op": "Sigmoid", "input": ["model_59/tf.math.add_132/Add"], "attr": {"T": {"type": "DT_FLOAT"}}}, {"name": "model_59/tf.math.multiply_385/Mul", "op": "Mul", "input": ["model_59/tf.math.add_132/Add", "model_59/tf.math.sigmoid_85/Sigmoid"], "attr": {"T": {"type": "DT_FLOAT"}}}, {"name": "model_59/tf.strided_slice_25/StridedSlice", "op": "StridedSlice", "input": ["model_59/tf.math.multiply_385/Mul", "model_59/tf.strided_slice_25/ones_like/tensor", "model_59/tf.strided_slice_25/StridedSlice/end", "model_59/tf.strided_slice_25/ones_like"], "attr": {"shrink_axis_mask": {"i": "0"}, "new_axis_mask": {"i": "0"}, "Index": {"type": "DT_INT64"}, "begin_mask": {"i": "15"}, "end_mask": {"i": "7"}, "T": {"type": "DT_FLOAT"}, "ellipsis_mask": {"i": "0"}}}, {"name": "model_59/tf.strided_slice_26/StridedSlice", "op": "StridedSlice", "input": ["model_59/tf.math.multiply_385/Mul", "model_59/tf.strided_slice_26/ones_like/tensor", "model_59/tf.strided_slice_26/StridedSlice/end", "model_59/tf.strided_slice_26/ones_like"], "attr": {"shrink_axis_mask": {"i": "0"}, "Index": {"type": "DT_INT64"}, "new_axis_mask": {"i": "0"}, "begin_mask": {"i": "7"}, "end_mask": {"i": "7"}, "T": {"type": "DT_FLOAT"}, "ellipsis_mask": {"i": "0"}}}, {"name": "model_59/tf.math.add_133/Add", "op": "_FusedConv2D", "input": ["model_59/tf.strided_slice_26/StridedSlice", "model_59/tf.nn.convolution_221/convolution/filter", "model_59/tf.math.add_133/Add/y"], "device": "/device:CPU:0", "attr": {"num_host_args": {"i": "0"}, "data_format": {"s": "TkhXQw=="}, "filter_format": {"s": "SFdJTw=="}, "fused_ops": {"list": {"s": ["Qmlhc0FkZA=="]}}, "num_args": {"i": "1"}, "strides": {"list": {"i": ["1", "1", "1", "1"]}}, "TArgs": {"list": {"type": ["DT_FLOAT"]}}, "padding": {"s": "U0FNRQ=="}, "use_cudnn_on_gpu": {"b": true}, "leakyrelu_alpha": {"f": 0.2}, "epsilon": {"f": 0.0}, "T": {"type": "DT_FLOAT"}, "explicit_paddings": {"list": {}}, "dilations": {"list": {"i": ["1", "1", "1", "1"]}}}}, {"name": "model_59/tf.math.sigmoid_86/Sigmoid", "op": "Sigmoid", "input": ["model_59/tf.math.add_133/Add"], "attr": {"T": {"type": "DT_FLOAT"}}}, {"name": "model_59/tf.math.multiply_389/Mul", "op": "Mul", "input": ["model_59/tf.math.add_133/Add", "model_59/tf.math.sigmoid_86/Sigmoid"], "attr": {"T": {"type": "DT_FLOAT"}}}, {"name": "model_59/tf.math.add_134/Add", "op": "_FusedConv2D", "input": ["model_59/tf.math.multiply_389/Mul", "model_59/tf.nn.convolution_222/convolution/filter", "model_59/tf.math.add_134/Add/y"], "device": "/device:CPU:0", "attr": {"num_host_args": {"i": "0"}, "data_format": {"s": "TkhXQw=="}, "filter_format": {"s": "SFdJTw=="}, "fused_ops": {"list": {"s": ["Qmlhc0FkZA=="]}}, "num_args": {"i": "1"}, "strides": {"list": {"i": ["1", "1", "1", "1"]}}, "TArgs": {"list": {"type": ["DT_FLOAT"]}}, "padding": {"s": "U0FNRQ=="}, "use_cudnn_on_gpu": {"b": true}, "leakyrelu_alpha": {"f": 0.2}, "epsilon": {"f": 0.0}, "T": {"type": "DT_FLOAT"}, "explicit_paddings": {"list": {}}, "dilations": {"list": {"i": ["1", "1", "1", "1"]}}}}, {"name": "model_59/tf.math.sigmoid_87/Sigmoid", "op": "Sigmoid", "input": ["model_59/tf.math.add_134/Add"], "attr": {"T": {"type": "DT_FLOAT"}}}, {"name": "model_59/tf.math.multiply_393/Mul", "op": "Mul", "input": ["model_59/tf.math.add_134/Add", "model_59/tf.math.sigmoid_87/Sigmoid"], "attr": {"T": {"type": "DT_FLOAT"}}}, {"name": "model_59/tf.math.add_136/Add", "op": "AddV2", "input": ["model_59/tf.strided_slice_26/StridedSlice", "model_59/tf.math.multiply_393/Mul"], "attr": {"T": {"type": "DT_FLOAT"}}}, {"name": "model_59/tf.math.add_137/Add", "op": "_FusedConv2D", "input": ["model_59/tf.math.add_136/Add", "model_59/tf.nn.convolution_223/convolution/filter", "model_59/tf.math.add_137/Add/y"], "device": "/device:CPU:0", "attr": {"num_host_args": {"i": "0"}, "data_format": {"s": "TkhXQw=="}, "filter_format": {"s": "SFdJTw=="}, "fused_ops": {"list": {"s": ["Qmlhc0FkZA=="]}}, "num_args": {"i": "1"}, "strides": {"list": {"i": ["1", "1", "1", "1"]}}, "TArgs": {"list": {"type": ["DT_FLOAT"]}}, "padding": {"s": "U0FNRQ=="}, "use_cudnn_on_gpu": {"b": true}, "leakyrelu_alpha": {"f": 0.2}, "epsilon": {"f": 0.0}, "T": {"type": "DT_FLOAT"}, "explicit_paddings": {"list": {}}, "dilations": {"list": {"i": ["1", "1", "1", "1"]}}}}, {"name": "model_59/tf.math.sigmoid_88/Sigmoid", "op": "Sigmoid", "input": ["model_59/tf.math.add_137/Add"], "attr": {"T": {"type": "DT_FLOAT"}}}, {"name": "model_59/tf.math.multiply_399/Mul", "op": "Mul", "input": ["model_59/tf.math.add_137/Add", "model_59/tf.math.sigmoid_88/Sigmoid"], "attr": {"T": {"type": "DT_FLOAT"}}}, {"name": "model_59/tf.math.add_138/Add", "op": "_FusedConv2D", "input": ["model_59/tf.math.multiply_399/Mul", "model_59/tf.nn.convolution_224/convolution/filter", "model_59/tf.math.add_138/Add/y"], "device": "/device:CPU:0", "attr": {"num_host_args": {"i": "0"}, "data_format": {"s": "TkhXQw=="}, "filter_format": {"s": "SFdJTw=="}, "fused_ops": {"list": {"s": ["Qmlhc0FkZA=="]}}, "num_args": {"i": "1"}, "strides": {"list": {"i": ["1", "1", "1", "1"]}}, "TArgs": {"list": {"type": ["DT_FLOAT"]}}, "padding": {"s": "U0FNRQ=="}, "use_cudnn_on_gpu": {"b": true}, "leakyrelu_alpha": {"f": 0.2}, "epsilon": {"f": 0.0}, "T": {"type": "DT_FLOAT"}, "explicit_paddings": {"list": {}}, "dilations": {"list": {"i": ["1", "1", "1", "1"]}}}}, {"name": "model_59/tf.math.sigmoid_89/Sigmoid", "op": "Sigmoid", "input": ["model_59/tf.math.add_138/Add"], "attr": {"T": {"type": "DT_FLOAT"}}}, {"name": "model_59/tf.math.multiply_403/Mul", "op": "Mul", "input": ["model_59/tf.math.add_138/Add", "model_59/tf.math.sigmoid_89/Sigmoid"], "attr": {"T": {"type": "DT_FLOAT"}}}, {"name": "model_59/tf.math.add_140/Add", "op": "AddV2", "input": ["model_59/tf.math.add_136/Add", "model_59/tf.math.multiply_403/Mul"], "attr": {"T": {"type": "DT_FLOAT"}}}, {"name": "model_59/tf.concat_30/concat", "op": "ConcatV2", "input": ["model_59/tf.strided_slice_25/StridedSlice", "model_59/tf.strided_slice_26/StridedSlice", "model_59/tf.math.add_136/Add", "model_59/tf.math.add_140/Add", "model_59/tf.concat_30/concat/axis"], "attr": {"N": {"i": "4"}, "Tidx": {"type": "DT_INT32"}, "T": {"type": "DT_FLOAT"}}}, {"name": "model_59/tf.math.add_141/Add", "op": "_FusedConv2D", "input": ["model_59/tf.concat_30/concat", "model_59/tf.nn.convolution_225/convolution/filter", "model_59/tf.math.add_141/Add/y"], "device": "/device:CPU:0", "attr": {"num_host_args": {"i": "0"}, "data_format": {"s": "TkhXQw=="}, "filter_format": {"s": "SFdJTw=="}, "fused_ops": {"list": {"s": ["Qmlhc0FkZA=="]}}, "num_args": {"i": "1"}, "strides": {"list": {"i": ["1", "1", "1", "1"]}}, "TArgs": {"list": {"type": ["DT_FLOAT"]}}, "padding": {"s": "U0FNRQ=="}, "use_cudnn_on_gpu": {"b": true}, "leakyrelu_alpha": {"f": 0.2}, "epsilon": {"f": 0.0}, "T": {"type": "DT_FLOAT"}, "explicit_paddings": {"list": {}}, "dilations": {"list": {"i": ["1", "1", "1", "1"]}}}}, {"name": "model_59/tf.math.sigmoid_90/Sigmoid", "op": "Sigmoid", "input": ["model_59/tf.math.add_141/Add"], "attr": {"T": {"type": "DT_FLOAT"}}}, {"name": "model_59/tf.math.multiply_409/Mul", "op": "Mul", "input": ["model_59/tf.math.add_141/Add", "model_59/tf.math.sigmoid_90/Sigmoid"], "attr": {"T": {"type": "DT_FLOAT"}}}, {"name": "model_59/tf.compat.v1.pad_10/Pad", "op": "Pad", "input": ["model_59/tf.math.multiply_409/Mul", "model_59/tf.compat.v1.pad_10/Pad/paddings"], "attr": {"Tpaddings": {"type": "DT_INT32"}, "T": {"type": "DT_FLOAT"}}}, {"name": "model_59/tf.math.add_142/Add", "op": "_FusedConv2D", "input": ["model_59/tf.compat.v1.pad_10/Pad", "model_59/tf.nn.convolution_226/convolution/filter", "model_59/tf.math.add_142/Add/y"], "device": "/device:CPU:0", "attr": {"num_host_args": {"i": "0"}, "data_format": {"s": "TkhXQw=="}, "filter_format": {"s": "SFdJTw=="}, "strides": {"list": {"i": ["1", "2", "2", "1"]}}, "num_args": {"i": "1"}, "fused_ops": {"list": {"s": ["Qmlhc0FkZA=="]}}, "TArgs": {"list": {"type": ["DT_FLOAT"]}}, "padding": {"s": "VkFMSUQ="}, "use_cudnn_on_gpu": {"b": true}, "leakyrelu_alpha": {"f": 0.2}, "epsilon": {"f": 0.0}, "T": {"type": "DT_FLOAT"}, "explicit_paddings": {"list": {}}, "dilations": {"list": {"i": ["1", "1", "1", "1"]}}}}, {"name": "model_59/tf.math.sigmoid_91/Sigmoid", "op": "Sigmoid", "input": ["model_59/tf.math.add_142/Add"], "attr": {"T": {"type": "DT_FLOAT"}}}, {"name": "model_59/tf.math.multiply_413/Mul", "op": "Mul", "input": ["model_59/tf.math.add_142/Add", "model_59/tf.math.sigmoid_91/Sigmoid"], "attr": {"T": {"type": "DT_FLOAT"}}}, {"name": "model_59/tf.math.add_143/Add", "op": "_FusedConv2D", "input": ["model_59/tf.math.multiply_413/Mul", "model_59/tf.nn.convolution_227/convolution/filter", "model_59/tf.math.add_143/Add/y"], "device": "/device:CPU:0", "attr": {"num_host_args": {"i": "0"}, "data_format": {"s": "TkhXQw=="}, "filter_format": {"s": "SFdJTw=="}, "fused_ops": {"list": {"s": ["Qmlhc0FkZA=="]}}, "num_args": {"i": "1"}, "strides": {"list": {"i": ["1", "1", "1", "1"]}}, "TArgs": {"list": {"type": ["DT_FLOAT"]}}, "padding": {"s": "U0FNRQ=="}, "use_cudnn_on_gpu": {"b": true}, "leakyrelu_alpha": {"f": 0.2}, "epsilon": {"f": 0.0}, "T": {"type": "DT_FLOAT"}, "explicit_paddings": {"list": {}}, "dilations": {"list": {"i": ["1", "1", "1", "1"]}}}}, {"name": "model_59/tf.math.sigmoid_92/Sigmoid", "op": "Sigmoid", "input": ["model_59/tf.math.add_143/Add"], "attr": {"T": {"type": "DT_FLOAT"}}}, {"name": "model_59/tf.math.multiply_417/Mul", "op": "Mul", "input": ["model_59/tf.math.add_143/Add", "model_59/tf.math.sigmoid_92/Sigmoid"], "attr": {"T": {"type": "DT_FLOAT"}}}, {"name": "model_59/tf.strided_slice_27/StridedSlice", "op": "StridedSlice", "input": ["model_59/tf.math.multiply_417/Mul", "model_59/tf.strided_slice_27/ones_like/tensor", "model_59/tf.strided_slice_27/StridedSlice/end", "model_59/tf.strided_slice_27/ones_like"], "attr": {"shrink_axis_mask": {"i": "0"}, "new_axis_mask": {"i": "0"}, "Index": {"type": "DT_INT64"}, "begin_mask": {"i": "15"}, "end_mask": {"i": "7"}, "T": {"type": "DT_FLOAT"}, "ellipsis_mask": {"i": "0"}}}, {"name": "model_59/tf.strided_slice_28/StridedSlice", "op": "StridedSlice", "input": ["model_59/tf.math.multiply_417/Mul", "model_59/tf.strided_slice_28/ones_like/tensor", "model_59/tf.strided_slice_28/StridedSlice/end", "model_59/tf.strided_slice_28/ones_like"], "attr": {"shrink_axis_mask": {"i": "0"}, "new_axis_mask": {"i": "0"}, "Index": {"type": "DT_INT64"}, "begin_mask": {"i": "7"}, "end_mask": {"i": "7"}, "T": {"type": "DT_FLOAT"}, "ellipsis_mask": {"i": "0"}}}, {"name": "model_59/tf.math.add_144/Add", "op": "_FusedConv2D", "input": ["model_59/tf.strided_slice_28/StridedSlice", "model_59/tf.nn.convolution_228/convolution/filter", "model_59/tf.math.add_144/Add/y"], "device": "/device:CPU:0", "attr": {"num_host_args": {"i": "0"}, "data_format": {"s": "TkhXQw=="}, "filter_format": {"s": "SFdJTw=="}, "strides": {"list": {"i": ["1", "1", "1", "1"]}}, "num_args": {"i": "1"}, "fused_ops": {"list": {"s": ["Qmlhc0FkZA=="]}}, "TArgs": {"list": {"type": ["DT_FLOAT"]}}, "padding": {"s": "U0FNRQ=="}, "use_cudnn_on_gpu": {"b": true}, "leakyrelu_alpha": {"f": 0.2}, "epsilon": {"f": 0.0}, "T": {"type": "DT_FLOAT"}, "explicit_paddings": {"list": {}}, "dilations": {"list": {"i": ["1", "1", "1", "1"]}}}}, {"name": "model_59/tf.math.sigmoid_93/Sigmoid", "op": "Sigmoid", "input": ["model_59/tf.math.add_144/Add"], "attr": {"T": {"type": "DT_FLOAT"}}}, {"name": "model_59/tf.math.multiply_421/Mul", "op": "Mul", "input": ["model_59/tf.math.add_144/Add", "model_59/tf.math.sigmoid_93/Sigmoid"], "attr": {"T": {"type": "DT_FLOAT"}}}, {"name": "model_59/tf.math.add_145/Add", "op": "_FusedConv2D", "input": ["model_59/tf.math.multiply_421/Mul", "model_59/tf.nn.convolution_229/convolution/filter", "model_59/tf.math.add_145/Add/y"], "device": "/device:CPU:0", "attr": {"num_host_args": {"i": "0"}, "data_format": {"s": "TkhXQw=="}, "filter_format": {"s": "SFdJTw=="}, "fused_ops": {"list": {"s": ["Qmlhc0FkZA=="]}}, "num_args": {"i": "1"}, "strides": {"list": {"i": ["1", "1", "1", "1"]}}, "TArgs": {"list": {"type": ["DT_FLOAT"]}}, "padding": {"s": "U0FNRQ=="}, "use_cudnn_on_gpu": {"b": true}, "leakyrelu_alpha": {"f": 0.2}, "epsilon": {"f": 0.0}, "T": {"type": "DT_FLOAT"}, "explicit_paddings": {"list": {}}, "dilations": {"list": {"i": ["1", "1", "1", "1"]}}}}, {"name": "model_59/tf.math.sigmoid_94/Sigmoid", "op": "Sigmoid", "input": ["model_59/tf.math.add_145/Add"], "attr": {"T": {"type": "DT_FLOAT"}}}, {"name": "model_59/tf.math.multiply_425/Mul", "op": "Mul", "input": ["model_59/tf.math.add_145/Add", "model_59/tf.math.sigmoid_94/Sigmoid"], "attr": {"T": {"type": "DT_FLOAT"}}}, {"name": "model_59/tf.math.add_147/Add", "op": "AddV2", "input": ["model_59/tf.strided_slice_28/StridedSlice", "model_59/tf.math.multiply_425/Mul"], "attr": {"T": {"type": "DT_FLOAT"}}}, {"name": "model_59/tf.math.add_148/Add", "op": "_FusedConv2D", "input": ["model_59/tf.math.add_147/Add", "model_59/tf.nn.convolution_230/convolution/filter", "model_59/tf.math.add_148/Add/y"], "device": "/device:CPU:0", "attr": {"num_host_args": {"i": "0"}, "data_format": {"s": "TkhXQw=="}, "filter_format": {"s": "SFdJTw=="}, "fused_ops": {"list": {"s": ["Qmlhc0FkZA=="]}}, "num_args": {"i": "1"}, "strides": {"list": {"i": ["1", "1", "1", "1"]}}, "TArgs": {"list": {"type": ["DT_FLOAT"]}}, "padding": {"s": "U0FNRQ=="}, "use_cudnn_on_gpu": {"b": true}, "leakyrelu_alpha": {"f": 0.2}, "epsilon": {"f": 0.0}, "T": {"type": "DT_FLOAT"}, "explicit_paddings": {"list": {}}, "dilations": {"list": {"i": ["1", "1", "1", "1"]}}}}, {"name": "model_59/tf.math.sigmoid_95/Sigmoid", "op": "Sigmoid", "input": ["model_59/tf.math.add_148/Add"], "attr": {"T": {"type": "DT_FLOAT"}}}, {"name": "model_59/tf.math.multiply_431/Mul", "op": "Mul", "input": ["model_59/tf.math.add_148/Add", "model_59/tf.math.sigmoid_95/Sigmoid"], "attr": {"T": {"type": "DT_FLOAT"}}}, {"name": "model_59/tf.math.add_149/Add", "op": "_FusedConv2D", "input": ["model_59/tf.math.multiply_431/Mul", "model_59/tf.nn.convolution_231/convolution/filter", "model_59/tf.math.add_149/Add/y"], "device": "/device:CPU:0", "attr": {"num_host_args": {"i": "0"}, "data_format": {"s": "TkhXQw=="}, "filter_format": {"s": "SFdJTw=="}, "strides": {"list": {"i": ["1", "1", "1", "1"]}}, "num_args": {"i": "1"}, "fused_ops": {"list": {"s": ["Qmlhc0FkZA=="]}}, "TArgs": {"list": {"type": ["DT_FLOAT"]}}, "padding": {"s": "U0FNRQ=="}, "use_cudnn_on_gpu": {"b": true}, "leakyrelu_alpha": {"f": 0.2}, "epsilon": {"f": 0.0}, "T": {"type": "DT_FLOAT"}, "explicit_paddings": {"list": {}}, "dilations": {"list": {"i": ["1", "1", "1", "1"]}}}}, {"name": "model_59/tf.math.sigmoid_96/Sigmoid", "op": "Sigmoid", "input": ["model_59/tf.math.add_149/Add"], "attr": {"T": {"type": "DT_FLOAT"}}}, {"name": "model_59/tf.math.multiply_435/Mul", "op": "Mul", "input": ["model_59/tf.math.add_149/Add", "model_59/tf.math.sigmoid_96/Sigmoid"], "attr": {"T": {"type": "DT_FLOAT"}}}, {"name": "model_59/tf.math.add_151/Add", "op": "AddV2", "input": ["model_59/tf.math.add_147/Add", "model_59/tf.math.multiply_435/Mul"], "attr": {"T": {"type": "DT_FLOAT"}}}, {"name": "model_59/tf.concat_31/concat", "op": "ConcatV2", "input": ["model_59/tf.strided_slice_27/StridedSlice", "model_59/tf.strided_slice_28/StridedSlice", "model_59/tf.math.add_147/Add", "model_59/tf.math.add_151/Add", "model_59/tf.concat_31/concat/axis"], "attr": {"N": {"i": "4"}, "T": {"type": "DT_FLOAT"}, "Tidx": {"type": "DT_INT32"}}}, {"name": "model_59/tf.math.add_152/Add", "op": "_FusedConv2D", "input": ["model_59/tf.concat_31/concat", "model_59/tf.nn.convolution_232/convolution/filter", "model_59/tf.math.add_152/Add/y"], "device": "/device:CPU:0", "attr": {"num_host_args": {"i": "0"}, "data_format": {"s": "TkhXQw=="}, "filter_format": {"s": "SFdJTw=="}, "fused_ops": {"list": {"s": ["Qmlhc0FkZA=="]}}, "num_args": {"i": "1"}, "strides": {"list": {"i": ["1", "1", "1", "1"]}}, "TArgs": {"list": {"type": ["DT_FLOAT"]}}, "padding": {"s": "U0FNRQ=="}, "use_cudnn_on_gpu": {"b": true}, "leakyrelu_alpha": {"f": 0.2}, "epsilon": {"f": 0.0}, "T": {"type": "DT_FLOAT"}, "explicit_paddings": {"list": {}}, "dilations": {"list": {"i": ["1", "1", "1", "1"]}}}}, {"name": "model_59/tf.math.sigmoid_97/Sigmoid", "op": "Sigmoid", "input": ["model_59/tf.math.add_152/Add"], "attr": {"T": {"type": "DT_FLOAT"}}}, {"name": "model_59/tf.math.multiply_441/Mul", "op": "Mul", "input": ["model_59/tf.math.add_152/Add", "model_59/tf.math.sigmoid_97/Sigmoid"], "attr": {"T": {"type": "DT_FLOAT"}}}, {"name": "model_59/tf.compat.v1.pad_11/Pad", "op": "Pad", "input": ["model_59/tf.math.multiply_441/Mul", "model_59/tf.compat.v1.pad_11/Pad/paddings"], "attr": {"Tpaddings": {"type": "DT_INT32"}, "T": {"type": "DT_FLOAT"}}}, {"name": "model_59/tf.math.add_153/Add", "op": "_FusedConv2D", "input": ["model_59/tf.compat.v1.pad_11/Pad", "model_59/tf.nn.convolution_233/convolution/filter", "model_59/tf.math.add_153/Add/y"], "device": "/device:CPU:0", "attr": {"num_host_args": {"i": "0"}, "data_format": {"s": "TkhXQw=="}, "filter_format": {"s": "SFdJTw=="}, "fused_ops": {"list": {"s": ["Qmlhc0FkZA=="]}}, "num_args": {"i": "1"}, "strides": {"list": {"i": ["1", "2", "2", "1"]}}, "TArgs": {"list": {"type": ["DT_FLOAT"]}}, "padding": {"s": "VkFMSUQ="}, "use_cudnn_on_gpu": {"b": true}, "leakyrelu_alpha": {"f": 0.2}, "epsilon": {"f": 0.0}, "T": {"type": "DT_FLOAT"}, "explicit_paddings": {"list": {}}, "dilations": {"list": {"i": ["1", "1", "1", "1"]}}}}, {"name": "model_59/tf.math.sigmoid_98/Sigmoid", "op": "Sigmoid", "input": ["model_59/tf.math.add_153/Add"], "attr": {"T": {"type": "DT_FLOAT"}}}, {"name": "model_59/tf.math.multiply_445/Mul", "op": "Mul", "input": ["model_59/tf.math.add_153/Add", "model_59/tf.math.sigmoid_98/Sigmoid"], "attr": {"T": {"type": "DT_FLOAT"}}}, {"name": "model_59/tf.math.add_154/Add", "op": "_FusedConv2D", "input": ["model_59/tf.math.multiply_445/Mul", "model_59/tf.nn.convolution_234/convolution/filter", "model_59/tf.math.add_154/Add/y"], "device": "/device:CPU:0", "attr": {"num_host_args": {"i": "0"}, "data_format": {"s": "TkhXQw=="}, "filter_format": {"s": "SFdJTw=="}, "strides": {"list": {"i": ["1", "1", "1", "1"]}}, "num_args": {"i": "1"}, "fused_ops": {"list": {"s": ["Qmlhc0FkZA=="]}}, "TArgs": {"list": {"type": ["DT_FLOAT"]}}, "padding": {"s": "U0FNRQ=="}, "use_cudnn_on_gpu": {"b": true}, "leakyrelu_alpha": {"f": 0.2}, "epsilon": {"f": 0.0}, "T": {"type": "DT_FLOAT"}, "explicit_paddings": {"list": {}}, "dilations": {"list": {"i": ["1", "1", "1", "1"]}}}}, {"name": "model_59/tf.math.sigmoid_99/Sigmoid", "op": "Sigmoid", "input": ["model_59/tf.math.add_154/Add"], "attr": {"T": {"type": "DT_FLOAT"}}}, {"name": "model_59/tf.math.multiply_449/Mul", "op": "Mul", "input": ["model_59/tf.math.add_154/Add", "model_59/tf.math.sigmoid_99/Sigmoid"], "attr": {"T": {"type": "DT_FLOAT"}}}, {"name": "model_59/tf.strided_slice_29/StridedSlice", "op": "StridedSlice", "input": ["model_59/tf.math.multiply_449/Mul", "model_59/tf.strided_slice_29/ones_like/tensor", "model_59/tf.strided_slice_29/StridedSlice/end", "model_59/tf.strided_slice_29/ones_like"], "attr": {"shrink_axis_mask": {"i": "0"}, "new_axis_mask": {"i": "0"}, "Index": {"type": "DT_INT64"}, "begin_mask": {"i": "15"}, "end_mask": {"i": "7"}, "T": {"type": "DT_FLOAT"}, "ellipsis_mask": {"i": "0"}}}, {"name": "model_59/tf.strided_slice_30/StridedSlice", "op": "StridedSlice", "input": ["model_59/tf.math.multiply_449/Mul", "model_59/tf.strided_slice_30/ones_like/tensor", "model_59/tf.strided_slice_30/StridedSlice/end", "model_59/tf.strided_slice_30/ones_like"], "attr": {"shrink_axis_mask": {"i": "0"}, "new_axis_mask": {"i": "0"}, "Index": {"type": "DT_INT64"}, "begin_mask": {"i": "7"}, "T": {"type": "DT_FLOAT"}, "end_mask": {"i": "7"}, "ellipsis_mask": {"i": "0"}}}, {"name": "model_59/tf.math.add_155/Add", "op": "_FusedConv2D", "input": ["model_59/tf.strided_slice_30/StridedSlice", "model_59/tf.nn.convolution_235/convolution/filter", "model_59/tf.math.add_155/Add/y"], "device": "/device:CPU:0", "attr": {"num_host_args": {"i": "0"}, "data_format": {"s": "TkhXQw=="}, "filter_format": {"s": "SFdJTw=="}, "fused_ops": {"list": {"s": ["Qmlhc0FkZA=="]}}, "num_args": {"i": "1"}, "strides": {"list": {"i": ["1", "1", "1", "1"]}}, "TArgs": {"list": {"type": ["DT_FLOAT"]}}, "padding": {"s": "U0FNRQ=="}, "use_cudnn_on_gpu": {"b": true}, "leakyrelu_alpha": {"f": 0.2}, "epsilon": {"f": 0.0}, "T": {"type": "DT_FLOAT"}, "explicit_paddings": {"list": {}}, "dilations": {"list": {"i": ["1", "1", "1", "1"]}}}}, {"name": "model_59/tf.math.sigmoid_100/Sigmoid", "op": "Sigmoid", "input": ["model_59/tf.math.add_155/Add"], "attr": {"T": {"type": "DT_FLOAT"}}}, {"name": "model_59/tf.math.multiply_453/Mul", "op": "Mul", "input": ["model_59/tf.math.add_155/Add", "model_59/tf.math.sigmoid_100/Sigmoid"], "attr": {"T": {"type": "DT_FLOAT"}}}, {"name": "model_59/tf.math.add_156/Add", "op": "_FusedConv2D", "input": ["model_59/tf.math.multiply_453/Mul", "model_59/tf.nn.convolution_236/convolution/filter", "model_59/tf.math.add_156/Add/y"], "device": "/device:CPU:0", "attr": {"num_host_args": {"i": "0"}, "data_format": {"s": "TkhXQw=="}, "filter_format": {"s": "SFdJTw=="}, "fused_ops": {"list": {"s": ["Qmlhc0FkZA=="]}}, "num_args": {"i": "1"}, "strides": {"list": {"i": ["1", "1", "1", "1"]}}, "TArgs": {"list": {"type": ["DT_FLOAT"]}}, "padding": {"s": "U0FNRQ=="}, "use_cudnn_on_gpu": {"b": true}, "leakyrelu_alpha": {"f": 0.2}, "epsilon": {"f": 0.0}, "T": {"type": "DT_FLOAT"}, "explicit_paddings": {"list": {}}, "dilations": {"list": {"i": ["1", "1", "1", "1"]}}}}, {"name": "model_59/tf.math.sigmoid_101/Sigmoid", "op": "Sigmoid", "input": ["model_59/tf.math.add_156/Add"], "attr": {"T": {"type": "DT_FLOAT"}}}, {"name": "model_59/tf.math.multiply_457/Mul", "op": "Mul", "input": ["model_59/tf.math.add_156/Add", "model_59/tf.math.sigmoid_101/Sigmoid"], "attr": {"T": {"type": "DT_FLOAT"}}}, {"name": "model_59/tf.math.add_158/Add", "op": "AddV2", "input": ["model_59/tf.strided_slice_30/StridedSlice", "model_59/tf.math.multiply_457/Mul"], "attr": {"T": {"type": "DT_FLOAT"}}}, {"name": "model_59/tf.concat_32/concat", "op": "ConcatV2", "input": ["model_59/tf.strided_slice_29/StridedSlice", "model_59/tf.strided_slice_30/StridedSlice", "model_59/tf.math.add_158/Add", "model_59/tf.concat_32/concat/axis"], "attr": {"N": {"i": "3"}, "Tidx": {"type": "DT_INT32"}, "T": {"type": "DT_FLOAT"}}}, {"name": "model_59/tf.math.add_159/Add", "op": "_FusedConv2D", "input": ["model_59/tf.concat_32/concat", "model_59/tf.nn.convolution_237/convolution/filter", "model_59/tf.math.add_159/Add/y"], "device": "/device:CPU:0", "attr": {"num_host_args": {"i": "0"}, "data_format": {"s": "TkhXQw=="}, "filter_format": {"s": "SFdJTw=="}, "strides": {"list": {"i": ["1", "1", "1", "1"]}}, "num_args": {"i": "1"}, "fused_ops": {"list": {"s": ["Qmlhc0FkZA=="]}}, "TArgs": {"list": {"type": ["DT_FLOAT"]}}, "padding": {"s": "U0FNRQ=="}, "use_cudnn_on_gpu": {"b": true}, "leakyrelu_alpha": {"f": 0.2}, "epsilon": {"f": 0.0}, "T": {"type": "DT_FLOAT"}, "explicit_paddings": {"list": {}}, "dilations": {"list": {"i": ["1", "1", "1", "1"]}}}}, {"name": "model_59/tf.math.sigmoid_102/Sigmoid", "op": "Sigmoid", "input": ["model_59/tf.math.add_159/Add"], "attr": {"T": {"type": "DT_FLOAT"}}}, {"name": "model_59/tf.math.multiply_463/Mul", "op": "Mul", "input": ["model_59/tf.math.add_159/Add", "model_59/tf.math.sigmoid_102/Sigmoid"], "attr": {"T": {"type": "DT_FLOAT"}}}, {"name": "model_59/tf.math.add_160/Add", "op": "_FusedConv2D", "input": ["model_59/tf.math.multiply_463/Mul", "model_59/tf.nn.convolution_238/convolution/filter", "model_59/tf.math.add_160/Add/y"], "device": "/device:CPU:0", "attr": {"num_host_args": {"i": "0"}, "data_format": {"s": "TkhXQw=="}, "filter_format": {"s": "SFdJTw=="}, "fused_ops": {"list": {"s": ["Qmlhc0FkZA=="]}}, "num_args": {"i": "1"}, "strides": {"list": {"i": ["1", "1", "1", "1"]}}, "TArgs": {"list": {"type": ["DT_FLOAT"]}}, "padding": {"s": "U0FNRQ=="}, "use_cudnn_on_gpu": {"b": true}, "leakyrelu_alpha": {"f": 0.2}, "epsilon": {"f": 0.0}, "T": {"type": "DT_FLOAT"}, "explicit_paddings": {"list": {}}, "dilations": {"list": {"i": ["1", "1", "1", "1"]}}}}, {"name": "model_59/tf.math.sigmoid_103/Sigmoid", "op": "Sigmoid", "input": ["model_59/tf.math.add_160/Add"], "attr": {"T": {"type": "DT_FLOAT"}}}, {"name": "model_59/tf.math.multiply_467/Mul", "op": "Mul", "input": ["model_59/tf.math.add_160/Add", "model_59/tf.math.sigmoid_103/Sigmoid"], "attr": {"T": {"type": "DT_FLOAT"}}}, {"name": "model_59/tf.compat.v1.nn.pool_3/max_pool", "op": "MaxPool", "input": ["model_59/tf.math.multiply_467/Mul"], "attr": {"padding": {"s": "U0FNRQ=="}, "data_format": {"s": "TkhXQw=="}, "T": {"type": "DT_FLOAT"}, "explicit_paddings": {"list": {}}, "ksize": {"list": {"i": ["1", "5", "5", "1"]}}, "strides": {"list": {"i": ["1", "1", "1", "1"]}}}}, {"name": "model_59/tf.compat.v1.nn.pool_4/max_pool", "op": "MaxPool", "input": ["model_59/tf.compat.v1.nn.pool_3/max_pool"], "attr": {"padding": {"s": "U0FNRQ=="}, "data_format": {"s": "TkhXQw=="}, "T": {"type": "DT_FLOAT"}, "explicit_paddings": {"list": {}}, "ksize": {"list": {"i": ["1", "5", "5", "1"]}}, "strides": {"list": {"i": ["1", "1", "1", "1"]}}}}, {"name": "model_59/tf.compat.v1.nn.pool_5/max_pool", "op": "MaxPool", "input": ["model_59/tf.compat.v1.nn.pool_4/max_pool"], "attr": {"ksize": {"list": {"i": ["1", "5", "5", "1"]}}, "data_format": {"s": "TkhXQw=="}, "T": {"type": "DT_FLOAT"}, "explicit_paddings": {"list": {}}, "padding": {"s": "U0FNRQ=="}, "strides": {"list": {"i": ["1", "1", "1", "1"]}}}}, {"name": "model_59/tf.concat_33/concat", "op": "ConcatV2", "input": ["model_59/tf.math.multiply_467/Mul", "model_59/tf.compat.v1.nn.pool_3/max_pool", "model_59/tf.compat.v1.nn.pool_4/max_pool", "model_59/tf.compat.v1.nn.pool_5/max_pool", "model_59/tf.concat_33/concat/axis"], "attr": {"N": {"i": "4"}, "Tidx": {"type": "DT_INT32"}, "T": {"type": "DT_FLOAT"}}}, {"name": "model_59/tf.math.add_161/Add", "op": "_FusedConv2D", "input": ["model_59/tf.concat_33/concat", "model_59/tf.nn.convolution_239/convolution/filter", "model_59/tf.math.add_161/Add/y"], "device": "/device:CPU:0", "attr": {"num_host_args": {"i": "0"}, "data_format": {"s": "TkhXQw=="}, "filter_format": {"s": "SFdJTw=="}, "strides": {"list": {"i": ["1", "1", "1", "1"]}}, "num_args": {"i": "1"}, "fused_ops": {"list": {"s": ["Qmlhc0FkZA=="]}}, "TArgs": {"list": {"type": ["DT_FLOAT"]}}, "padding": {"s": "U0FNRQ=="}, "use_cudnn_on_gpu": {"b": true}, "leakyrelu_alpha": {"f": 0.2}, "epsilon": {"f": 0.0}, "T": {"type": "DT_FLOAT"}, "explicit_paddings": {"list": {}}, "dilations": {"list": {"i": ["1", "1", "1", "1"]}}}}, {"name": "model_59/tf.math.sigmoid_104/Sigmoid", "op": "Sigmoid", "input": ["model_59/tf.math.add_161/Add"], "attr": {"T": {"type": "DT_FLOAT"}}}, {"name": "model_59/tf.math.multiply_471/Mul", "op": "Mul", "input": ["model_59/tf.math.add_161/Add", "model_59/tf.math.sigmoid_104/Sigmoid"], "attr": {"T": {"type": "DT_FLOAT"}}}, {"name": "model_59/tf.image.resize_2/resize/ResizeNearestNeighbor", "op": "ResizeNearestNeighbor", "input": ["model_59/tf.math.multiply_471/Mul", "model_59/tf.image.resize_2/resize/size"], "attr": {"T": {"type": "DT_FLOAT"}, "align_corners": {"b": false}, "half_pixel_centers": {"b": true}}}, {"name": "model_59/tf.concat_34/concat", "op": "ConcatV2", "input": ["model_59/tf.image.resize_2/resize/ResizeNearestNeighbor", "model_59/tf.math.multiply_441/Mul", "model_59/tf.concat_34/concat/axis"], "attr": {"N": {"i": "2"}, "T": {"type": "DT_FLOAT"}, "Tidx": {"type": "DT_INT32"}}}, {"name": "model_59/tf.math.add_162/Add", "op": "_FusedConv2D", "input": ["model_59/tf.concat_34/concat", "model_59/tf.nn.convolution_240/convolution/filter", "model_59/tf.math.add_162/Add/y"], "device": "/device:CPU:0", "attr": {"num_host_args": {"i": "0"}, "data_format": {"s": "TkhXQw=="}, "filter_format": {"s": "SFdJTw=="}, "fused_ops": {"list": {"s": ["Qmlhc0FkZA=="]}}, "num_args": {"i": "1"}, "strides": {"list": {"i": ["1", "1", "1", "1"]}}, "TArgs": {"list": {"type": ["DT_FLOAT"]}}, "padding": {"s": "U0FNRQ=="}, "use_cudnn_on_gpu": {"b": true}, "leakyrelu_alpha": {"f": 0.2}, "epsilon": {"f": 0.0}, "T": {"type": "DT_FLOAT"}, "explicit_paddings": {"list": {}}, "dilations": {"list": {"i": ["1", "1", "1", "1"]}}}}, {"name": "model_59/tf.math.sigmoid_105/Sigmoid", "op": "Sigmoid", "input": ["model_59/tf.math.add_162/Add"], "attr": {"T": {"type": "DT_FLOAT"}}}, {"name": "model_59/tf.math.multiply_475/Mul", "op": "Mul", "input": ["model_59/tf.math.add_162/Add", "model_59/tf.math.sigmoid_105/Sigmoid"], "attr": {"T": {"type": "DT_FLOAT"}}}, {"name": "model_59/tf.strided_slice_31/StridedSlice", "op": "StridedSlice", "input": ["model_59/tf.math.multiply_475/Mul", "model_59/tf.strided_slice_31/ones_like/tensor", "model_59/tf.strided_slice_31/StridedSlice/end", "model_59/tf.strided_slice_31/ones_like"], "attr": {"shrink_axis_mask": {"i": "0"}, "new_axis_mask": {"i": "0"}, "Index": {"type": "DT_INT64"}, "begin_mask": {"i": "15"}, "T": {"type": "DT_FLOAT"}, "end_mask": {"i": "7"}, "ellipsis_mask": {"i": "0"}}}, {"name": "model_59/tf.strided_slice_32/StridedSlice", "op": "StridedSlice", "input": ["model_59/tf.math.multiply_475/Mul", "model_59/tf.strided_slice_32/ones_like/tensor", "model_59/tf.strided_slice_32/StridedSlice/end", "model_59/tf.strided_slice_32/ones_like"], "attr": {"shrink_axis_mask": {"i": "0"}, "new_axis_mask": {"i": "0"}, "Index": {"type": "DT_INT64"}, "begin_mask": {"i": "7"}, "T": {"type": "DT_FLOAT"}, "end_mask": {"i": "7"}, "ellipsis_mask": {"i": "0"}}}, {"name": "model_59/tf.math.add_163/Add", "op": "_FusedConv2D", "input": ["model_59/tf.strided_slice_32/StridedSlice", "model_59/tf.nn.convolution_241/convolution/filter", "model_59/tf.math.add_163/Add/y"], "device": "/device:CPU:0", "attr": {"num_host_args": {"i": "0"}, "data_format": {"s": "TkhXQw=="}, "filter_format": {"s": "SFdJTw=="}, "fused_ops": {"list": {"s": ["Qmlhc0FkZA=="]}}, "num_args": {"i": "1"}, "strides": {"list": {"i": ["1", "1", "1", "1"]}}, "TArgs": {"list": {"type": ["DT_FLOAT"]}}, "padding": {"s": "U0FNRQ=="}, "use_cudnn_on_gpu": {"b": true}, "leakyrelu_alpha": {"f": 0.2}, "epsilon": {"f": 0.0}, "T": {"type": "DT_FLOAT"}, "explicit_paddings": {"list": {}}, "dilations": {"list": {"i": ["1", "1", "1", "1"]}}}}, {"name": "model_59/tf.math.sigmoid_106/Sigmoid", "op": "Sigmoid", "input": ["model_59/tf.math.add_163/Add"], "attr": {"T": {"type": "DT_FLOAT"}}}, {"name": "model_59/tf.math.multiply_479/Mul", "op": "Mul", "input": ["model_59/tf.math.add_163/Add", "model_59/tf.math.sigmoid_106/Sigmoid"], "attr": {"T": {"type": "DT_FLOAT"}}}, {"name": "model_59/tf.math.add_164/Add", "op": "_FusedConv2D", "input": ["model_59/tf.math.multiply_479/Mul", "model_59/tf.nn.convolution_242/convolution/filter", "model_59/tf.math.add_164/Add/y"], "device": "/device:CPU:0", "attr": {"num_host_args": {"i": "0"}, "data_format": {"s": "TkhXQw=="}, "filter_format": {"s": "SFdJTw=="}, "strides": {"list": {"i": ["1", "1", "1", "1"]}}, "num_args": {"i": "1"}, "fused_ops": {"list": {"s": ["Qmlhc0FkZA=="]}}, "TArgs": {"list": {"type": ["DT_FLOAT"]}}, "padding": {"s": "U0FNRQ=="}, "use_cudnn_on_gpu": {"b": true}, "leakyrelu_alpha": {"f": 0.2}, "epsilon": {"f": 0.0}, "T": {"type": "DT_FLOAT"}, "explicit_paddings": {"list": {}}, "dilations": {"list": {"i": ["1", "1", "1", "1"]}}}}, {"name": "model_59/tf.math.sigmoid_107/Sigmoid", "op": "Sigmoid", "input": ["model_59/tf.math.add_164/Add"], "attr": {"T": {"type": "DT_FLOAT"}}}, {"name": "model_59/tf.math.multiply_483/Mul", "op": "Mul", "input": ["model_59/tf.math.add_164/Add", "model_59/tf.math.sigmoid_107/Sigmoid"], "attr": {"T": {"type": "DT_FLOAT"}}}, {"name": "model_59/tf.concat_35/concat", "op": "ConcatV2", "input": ["model_59/tf.strided_slice_31/StridedSlice", "model_59/tf.strided_slice_32/StridedSlice", "model_59/tf.math.multiply_483/Mul", "model_59/tf.concat_35/concat/axis"], "attr": {"N": {"i": "3"}, "T": {"type": "DT_FLOAT"}, "Tidx": {"type": "DT_INT32"}}}, {"name": "model_59/tf.math.add_165/Add", "op": "_FusedConv2D", "input": ["model_59/tf.concat_35/concat", "model_59/tf.nn.convolution_243/convolution/filter", "model_59/tf.math.add_165/Add/y"], "device": "/device:CPU:0", "attr": {"num_host_args": {"i": "0"}, "data_format": {"s": "TkhXQw=="}, "filter_format": {"s": "SFdJTw=="}, "fused_ops": {"list": {"s": ["Qmlhc0FkZA=="]}}, "num_args": {"i": "1"}, "strides": {"list": {"i": ["1", "1", "1", "1"]}}, "TArgs": {"list": {"type": ["DT_FLOAT"]}}, "padding": {"s": "U0FNRQ=="}, "use_cudnn_on_gpu": {"b": true}, "leakyrelu_alpha": {"f": 0.2}, "epsilon": {"f": 0.0}, "T": {"type": "DT_FLOAT"}, "explicit_paddings": {"list": {}}, "dilations": {"list": {"i": ["1", "1", "1", "1"]}}}}, {"name": "model_59/tf.math.sigmoid_108/Sigmoid", "op": "Sigmoid", "input": ["model_59/tf.math.add_165/Add"], "attr": {"T": {"type": "DT_FLOAT"}}}, {"name": "model_59/tf.math.multiply_487/Mul", "op": "Mul", "input": ["model_59/tf.math.add_165/Add", "model_59/tf.math.sigmoid_108/Sigmoid"], "attr": {"T": {"type": "DT_FLOAT"}}}, {"name": "model_59/tf.image.resize_3/resize/ResizeNearestNeighbor", "op": "ResizeNearestNeighbor", "input": ["model_59/tf.math.multiply_487/Mul", "model_59/tf.image.resize_3/resize/size"], "attr": {"T": {"type": "DT_FLOAT"}, "align_corners": {"b": false}, "half_pixel_centers": {"b": true}}}, {"name": "model_59/tf.concat_36/concat", "op": "ConcatV2", "input": ["model_59/tf.image.resize_3/resize/ResizeNearestNeighbor", "model_59/tf.math.multiply_409/Mul", "model_59/tf.concat_36/concat/axis"], "attr": {"N": {"i": "2"}, "Tidx": {"type": "DT_INT32"}, "T": {"type": "DT_FLOAT"}}}, {"name": "model_59/tf.math.add_166/Add", "op": "_FusedConv2D", "input": ["model_59/tf.concat_36/concat", "model_59/tf.nn.convolution_244/convolution/filter", "model_59/tf.math.add_166/Add/y"], "device": "/device:CPU:0", "attr": {"num_host_args": {"i": "0"}, "data_format": {"s": "TkhXQw=="}, "filter_format": {"s": "SFdJTw=="}, "fused_ops": {"list": {"s": ["Qmlhc0FkZA=="]}}, "num_args": {"i": "1"}, "strides": {"list": {"i": ["1", "1", "1", "1"]}}, "TArgs": {"list": {"type": ["DT_FLOAT"]}}, "padding": {"s": "U0FNRQ=="}, "use_cudnn_on_gpu": {"b": true}, "leakyrelu_alpha": {"f": 0.2}, "epsilon": {"f": 0.0}, "T": {"type": "DT_FLOAT"}, "explicit_paddings": {"list": {}}, "dilations": {"list": {"i": ["1", "1", "1", "1"]}}}}, {"name": "model_59/tf.math.sigmoid_109/Sigmoid", "op": "Sigmoid", "input": ["model_59/tf.math.add_166/Add"], "attr": {"T": {"type": "DT_FLOAT"}}}, {"name": "model_59/tf.math.multiply_491/Mul", "op": "Mul", "input": ["model_59/tf.math.add_166/Add", "model_59/tf.math.sigmoid_109/Sigmoid"], "attr": {"T": {"type": "DT_FLOAT"}}}, {"name": "model_59/tf.strided_slice_33/StridedSlice", "op": "StridedSlice", "input": ["model_59/tf.math.multiply_491/Mul", "model_59/tf.strided_slice_33/ones_like/tensor", "model_59/tf.strided_slice_33/StridedSlice/end", "model_59/tf.strided_slice_33/ones_like"], "attr": {"shrink_axis_mask": {"i": "0"}, "new_axis_mask": {"i": "0"}, "Index": {"type": "DT_INT64"}, "begin_mask": {"i": "15"}, "T": {"type": "DT_FLOAT"}, "end_mask": {"i": "7"}, "ellipsis_mask": {"i": "0"}}}, {"name": "model_59/tf.strided_slice_34/StridedSlice", "op": "StridedSlice", "input": ["model_59/tf.math.multiply_491/Mul", "model_59/tf.strided_slice_34/ones_like/tensor", "model_59/tf.strided_slice_34/StridedSlice/end", "model_59/tf.strided_slice_34/ones_like"], "attr": {"shrink_axis_mask": {"i": "0"}, "Index": {"type": "DT_INT64"}, "new_axis_mask": {"i": "0"}, "begin_mask": {"i": "7"}, "end_mask": {"i": "7"}, "T": {"type": "DT_FLOAT"}, "ellipsis_mask": {"i": "0"}}}, {"name": "model_59/tf.math.add_167/Add", "op": "_FusedConv2D", "input": ["model_59/tf.strided_slice_34/StridedSlice", "model_59/tf.nn.convolution_245/convolution/filter", "model_59/tf.math.add_167/Add/y"], "device": "/device:CPU:0", "attr": {"num_host_args": {"i": "0"}, "data_format": {"s": "TkhXQw=="}, "filter_format": {"s": "SFdJTw=="}, "fused_ops": {"list": {"s": ["Qmlhc0FkZA=="]}}, "num_args": {"i": "1"}, "strides": {"list": {"i": ["1", "1", "1", "1"]}}, "TArgs": {"list": {"type": ["DT_FLOAT"]}}, "padding": {"s": "U0FNRQ=="}, "use_cudnn_on_gpu": {"b": true}, "leakyrelu_alpha": {"f": 0.2}, "epsilon": {"f": 0.0}, "T": {"type": "DT_FLOAT"}, "explicit_paddings": {"list": {}}, "dilations": {"list": {"i": ["1", "1", "1", "1"]}}}}, {"name": "model_59/tf.math.sigmoid_110/Sigmoid", "op": "Sigmoid", "input": ["model_59/tf.math.add_167/Add"], "attr": {"T": {"type": "DT_FLOAT"}}}, {"name": "model_59/tf.math.multiply_495/Mul", "op": "Mul", "input": ["model_59/tf.math.add_167/Add", "model_59/tf.math.sigmoid_110/Sigmoid"], "attr": {"T": {"type": "DT_FLOAT"}}}, {"name": "model_59/tf.math.add_168/Add", "op": "_FusedConv2D", "input": ["model_59/tf.math.multiply_495/Mul", "model_59/tf.nn.convolution_246/convolution/filter", "model_59/tf.math.add_168/Add/y"], "device": "/device:CPU:0", "attr": {"num_host_args": {"i": "0"}, "data_format": {"s": "TkhXQw=="}, "filter_format": {"s": "SFdJTw=="}, "strides": {"list": {"i": ["1", "1", "1", "1"]}}, "num_args": {"i": "1"}, "fused_ops": {"list": {"s": ["Qmlhc0FkZA=="]}}, "TArgs": {"list": {"type": ["DT_FLOAT"]}}, "padding": {"s": "U0FNRQ=="}, "use_cudnn_on_gpu": {"b": true}, "leakyrelu_alpha": {"f": 0.2}, "epsilon": {"f": 0.0}, "T": {"type": "DT_FLOAT"}, "explicit_paddings": {"list": {}}, "dilations": {"list": {"i": ["1", "1", "1", "1"]}}}}, {"name": "model_59/tf.math.sigmoid_111/Sigmoid", "op": "Sigmoid", "input": ["model_59/tf.math.add_168/Add"], "attr": {"T": {"type": "DT_FLOAT"}}}, {"name": "model_59/tf.math.multiply_499/Mul", "op": "Mul", "input": ["model_59/tf.math.add_168/Add", "model_59/tf.math.sigmoid_111/Sigmoid"], "attr": {"T": {"type": "DT_FLOAT"}}}, {"name": "model_59/tf.concat_37/concat", "op": "ConcatV2", "input": ["model_59/tf.strided_slice_33/StridedSlice", "model_59/tf.strided_slice_34/StridedSlice", "model_59/tf.math.multiply_499/Mul", "model_59/tf.concat_37/concat/axis"], "attr": {"N": {"i": "3"}, "Tidx": {"type": "DT_INT32"}, "T": {"type": "DT_FLOAT"}}}, {"name": "model_59/tf.math.add_169/Add", "op": "_FusedConv2D", "input": ["model_59/tf.concat_37/concat", "model_59/tf.nn.convolution_247/convolution/filter", "model_59/tf.math.add_169/Add/y"], "device": "/device:CPU:0", "attr": {"num_host_args": {"i": "0"}, "data_format": {"s": "TkhXQw=="}, "filter_format": {"s": "SFdJTw=="}, "fused_ops": {"list": {"s": ["Qmlhc0FkZA=="]}}, "num_args": {"i": "1"}, "strides": {"list": {"i": ["1", "1", "1", "1"]}}, "TArgs": {"list": {"type": ["DT_FLOAT"]}}, "padding": {"s": "U0FNRQ=="}, "use_cudnn_on_gpu": {"b": true}, "leakyrelu_alpha": {"f": 0.2}, "epsilon": {"f": 0.0}, "T": {"type": "DT_FLOAT"}, "explicit_paddings": {"list": {}}, "dilations": {"list": {"i": ["1", "1", "1", "1"]}}}}, {"name": "model_59/tf.math.sigmoid_112/Sigmoid", "op": "Sigmoid", "input": ["model_59/tf.math.add_169/Add"], "attr": {"T": {"type": "DT_FLOAT"}}}, {"name": "model_59/tf.math.multiply_503/Mul", "op": "Mul", "input": ["model_59/tf.math.add_169/Add", "model_59/tf.math.sigmoid_112/Sigmoid"], "attr": {"T": {"type": "DT_FLOAT"}}}, {"name": "model_59/tf.math.add_171/Add", "op": "_FusedConv2D", "input": ["model_59/tf.math.multiply_503/Mul", "model_59/tf.nn.convolution_249/convolution/filter", "model_59/tf.math.add_171/Add/y"], "device": "/device:CPU:0", "attr": {"num_host_args": {"i": "0"}, "data_format": {"s": "TkhXQw=="}, "filter_format": {"s": "SFdJTw=="}, "strides": {"list": {"i": ["1", "1", "1", "1"]}}, "num_args": {"i": "1"}, "fused_ops": {"list": {"s": ["Qmlhc0FkZA=="]}}, "TArgs": {"list": {"type": ["DT_FLOAT"]}}, "padding": {"s": "U0FNRQ=="}, "use_cudnn_on_gpu": {"b": true}, "leakyrelu_alpha": {"f": 0.2}, "epsilon": {"f": 0.0}, "T": {"type": "DT_FLOAT"}, "explicit_paddings": {"list": {}}, "dilations": {"list": {"i": ["1", "1", "1", "1"]}}}}, {"name": "model_59/tf.math.add_172/Add", "op": "_FusedConv2D", "input": ["model_59/tf.math.multiply_503/Mul", "model_59/tf.nn.convolution_250/convolution/filter", "model_59/tf.math.add_172/Add/y"], "device": "/device:CPU:0", "attr": {"num_host_args": {"i": "0"}, "data_format": {"s": "TkhXQw=="}, "filter_format": {"s": "SFdJTw=="}, "fused_ops": {"list": {"s": ["Qmlhc0FkZA=="]}}, "num_args": {"i": "1"}, "strides": {"list": {"i": ["1", "1", "1", "1"]}}, "TArgs": {"list": {"type": ["DT_FLOAT"]}}, "padding": {"s": "U0FNRQ=="}, "use_cudnn_on_gpu": {"b": true}, "leakyrelu_alpha": {"f": 0.2}, "epsilon": {"f": 0.0}, "T": {"type": "DT_FLOAT"}, "explicit_paddings": {"list": {}}, "dilations": {"list": {"i": ["1", "1", "1", "1"]}}}}, {"name": "model_59/tf.compat.v1.pad_12/Pad", "op": "Pad", "input": ["model_59/tf.math.multiply_503/Mul", "model_59/tf.compat.v1.pad_12/Pad/paddings"], "attr": {"Tpaddings": {"type": "DT_INT32"}, "T": {"type": "DT_FLOAT"}}}, {"name": "model_59/tf.math.sigmoid_114/Sigmoid", "op": "Sigmoid", "input": ["model_59/tf.math.add_171/Add"], "attr": {"T": {"type": "DT_FLOAT"}}}, {"name": "model_59/tf.math.sigmoid_115/Sigmoid", "op": "Sigmoid", "input": ["model_59/tf.math.add_172/Add"], "attr": {"T": {"type": "DT_FLOAT"}}}, {"name": "model_59/tf.math.add_170/Add", "op": "_FusedConv2D", "input": ["model_59/tf.compat.v1.pad_12/Pad", "model_59/tf.nn.convolution_248/convolution/filter", "model_59/tf.math.add_170/Add/y"], "device": "/device:CPU:0", "attr": {"num_host_args": {"i": "0"}, "data_format": {"s": "TkhXQw=="}, "filter_format": {"s": "SFdJTw=="}, "fused_ops": {"list": {"s": ["Qmlhc0FkZA=="]}}, "num_args": {"i": "1"}, "strides": {"list": {"i": ["1", "2", "2", "1"]}}, "TArgs": {"list": {"type": ["DT_FLOAT"]}}, "padding": {"s": "VkFMSUQ="}, "use_cudnn_on_gpu": {"b": true}, "leakyrelu_alpha": {"f": 0.2}, "epsilon": {"f": 0.0}, "T": {"type": "DT_FLOAT"}, "explicit_paddings": {"list": {}}, "dilations": {"list": {"i": ["1", "1", "1", "1"]}}}}, {"name": "model_59/tf.math.multiply_511/Mul", "op": "Mul", "input": ["model_59/tf.math.add_171/Add", "model_59/tf.math.sigmoid_114/Sigmoid"], "attr": {"T": {"type": "DT_FLOAT"}}}, {"name": "model_59/tf.math.multiply_515/Mul", "op": "Mul", "input": ["model_59/tf.math.add_172/Add", "model_59/tf.math.sigmoid_115/Sigmoid"], "attr": {"T": {"type": "DT_FLOAT"}}}, {"name": "model_59/tf.math.sigmoid_113/Sigmoid", "op": "Sigmoid", "input": ["model_59/tf.math.add_170/Add"], "attr": {"T": {"type": "DT_FLOAT"}}}, {"name": "model_59/tf.math.add_173/Add", "op": "_FusedConv2D", "input": ["model_59/tf.math.multiply_511/Mul", "model_59/tf.nn.convolution_251/convolution/filter", "model_59/tf.math.add_173/Add/y"], "device": "/device:CPU:0", "attr": {"num_host_args": {"i": "0"}, "data_format": {"s": "TkhXQw=="}, "filter_format": {"s": "SFdJTw=="}, "strides": {"list": {"i": ["1", "1", "1", "1"]}}, "num_args": {"i": "1"}, "fused_ops": {"list": {"s": ["Qmlhc0FkZA=="]}}, "TArgs": {"list": {"type": ["DT_FLOAT"]}}, "padding": {"s": "U0FNRQ=="}, "use_cudnn_on_gpu": {"b": true}, "leakyrelu_alpha": {"f": 0.2}, "epsilon": {"f": 0.0}, "T": {"type": "DT_FLOAT"}, "explicit_paddings": {"list": {}}, "dilations": {"list": {"i": ["1", "1", "1", "1"]}}}}, {"name": "model_59/tf.math.add_176/Add", "op": "_FusedConv2D", "input": ["model_59/tf.math.multiply_515/Mul", "model_59/tf.nn.convolution_254/convolution/filter", "model_59/tf.math.add_176/Add/y"], "device": "/device:CPU:0", "attr": {"num_host_args": {"i": "0"}, "data_format": {"s": "TkhXQw=="}, "filter_format": {"s": "SFdJTw=="}, "fused_ops": {"list": {"s": ["Qmlhc0FkZA=="]}}, "num_args": {"i": "1"}, "strides": {"list": {"i": ["1", "1", "1", "1"]}}, "TArgs": {"list": {"type": ["DT_FLOAT"]}}, "padding": {"s": "U0FNRQ=="}, "use_cudnn_on_gpu": {"b": true}, "leakyrelu_alpha": {"f": 0.2}, "epsilon": {"f": 0.0}, "T": {"type": "DT_FLOAT"}, "explicit_paddings": {"list": {}}, "dilations": {"list": {"i": ["1", "1", "1", "1"]}}}}, {"name": "model_59/tf.math.multiply_507/Mul", "op": "Mul", "input": ["model_59/tf.math.add_170/Add", "model_59/tf.math.sigmoid_113/Sigmoid"], "attr": {"T": {"type": "DT_FLOAT"}}}, {"name": "model_59/tf.math.sigmoid_116/Sigmoid", "op": "Sigmoid", "input": ["model_59/tf.math.add_173/Add"], "attr": {"T": {"type": "DT_FLOAT"}}}, {"name": "model_59/tf.math.sigmoid_117/Sigmoid", "op": "Sigmoid", "input": ["model_59/tf.math.add_176/Add"], "attr": {"T": {"type": "DT_FLOAT"}}}, {"name": "model_59/tf.concat_38/concat", "op": "ConcatV2", "input": ["model_59/tf.math.multiply_507/Mul", "model_59/tf.math.multiply_487/Mul", "model_59/tf.concat_38/concat/axis"], "attr": {"N": {"i": "2"}, "T": {"type": "DT_FLOAT"}, "Tidx": {"type": "DT_INT32"}}}, {"name": "model_59/tf.math.multiply_519/Mul", "op": "Mul", "input": ["model_59/tf.math.add_173/Add", "model_59/tf.math.sigmoid_116/Sigmoid"], "attr": {"T": {"type": "DT_FLOAT"}}}, {"name": "model_59/tf.math.multiply_523/Mul", "op": "Mul", "input": ["model_59/tf.math.add_176/Add", "model_59/tf.math.sigmoid_117/Sigmoid"], "attr": {"T": {"type": "DT_FLOAT"}}}, {"name": "model_59/tf.math.add_177/Add", "op": "_FusedConv2D", "input": ["model_59/tf.concat_38/concat", "model_59/tf.nn.convolution_255/convolution/filter", "model_59/tf.math.add_177/Add/y"], "device": "/device:CPU:0", "attr": {"num_host_args": {"i": "0"}, "data_format": {"s": "TkhXQw=="}, "filter_format": {"s": "SFdJTw=="}, "strides": {"list": {"i": ["1", "1", "1", "1"]}}, "num_args": {"i": "1"}, "fused_ops": {"list": {"s": ["Qmlhc0FkZA=="]}}, "TArgs": {"list": {"type": ["DT_FLOAT"]}}, "padding": {"s": "U0FNRQ=="}, "use_cudnn_on_gpu": {"b": true}, "leakyrelu_alpha": {"f": 0.2}, "epsilon": {"f": 0.0}, "T": {"type": "DT_FLOAT"}, "explicit_paddings": {"list": {}}, "dilations": {"list": {"i": ["1", "1", "1", "1"]}}}}, {"name": "model_59/tf.math.add_178/Add", "op": "_FusedConv2D", "input": ["model_59/tf.math.multiply_519/Mul", "model_59/tf.nn.convolution_256/convolution/filter", "model_59/tf.math.add_178/Add/y"], "device": "/device:CPU:0", "attr": {"num_host_args": {"i": "0"}, "data_format": {"s": "TkhXQw=="}, "filter_format": {"s": "SFdJTw=="}, "strides": {"list": {"i": ["1", "1", "1", "1"]}}, "num_args": {"i": "1"}, "fused_ops": {"list": {"s": ["Qmlhc0FkZA=="]}}, "TArgs": {"list": {"type": ["DT_FLOAT"]}}, "padding": {"s": "U0FNRQ=="}, "use_cudnn_on_gpu": {"b": true}, "leakyrelu_alpha": {"f": 0.2}, "epsilon": {"f": 0.0}, "T": {"type": "DT_FLOAT"}, "explicit_paddings": {"list": {}}, "dilations": {"list": {"i": ["1", "1", "1", "1"]}}}}, {"name": "model_59/tf.math.add_181/Add", "op": "_FusedConv2D", "input": ["model_59/tf.math.multiply_523/Mul", "model_59/tf.nn.convolution_259/convolution/filter", "model_59/tf.math.add_181/Add/y"], "device": "/device:CPU:0", "attr": {"num_host_args": {"i": "0"}, "data_format": {"s": "TkhXQw=="}, "filter_format": {"s": "SFdJTw=="}, "fused_ops": {"list": {"s": ["Qmlhc0FkZA=="]}}, "num_args": {"i": "1"}, "strides": {"list": {"i": ["1", "1", "1", "1"]}}, "TArgs": {"list": {"type": ["DT_FLOAT"]}}, "padding": {"s": "U0FNRQ=="}, "use_cudnn_on_gpu": {"b": true}, "leakyrelu_alpha": {"f": 0.2}, "epsilon": {"f": 0.0}, "T": {"type": "DT_FLOAT"}, "explicit_paddings": {"list": {}}, "dilations": {"list": {"i": ["1", "1", "1", "1"]}}}}, {"name": "model_59/tf.math.sigmoid_118/Sigmoid", "op": "Sigmoid", "input": ["model_59/tf.math.add_177/Add"], "attr": {"T": {"type": "DT_FLOAT"}}}, {"name": "model_59/tf.concat_41/concat", "op": "ConcatV2", "input": ["model_59/tf.math.add_178/Add", "model_59/tf.math.add_181/Add", "model_59/tf.concat_41/concat/axis"], "attr": {"N": {"i": "2"}, "T": {"type": "DT_FLOAT"}, "Tidx": {"type": "DT_INT32"}}}, {"name": "model_59/tf.math.multiply_527/Mul", "op": "Mul", "input": ["model_59/tf.math.add_177/Add", "model_59/tf.math.sigmoid_118/Sigmoid"], "attr": {"T": {"type": "DT_FLOAT"}}}, {"name": "model_59/tf.compat.v1.transpose_201/transpose", "op": "Transpose", "input": ["model_59/tf.concat_41/concat", "model_59/tf.compat.v1.transpose_201/transpose/perm"], "attr": {"Tperm": {"type": "DT_INT32"}, "T": {"type": "DT_FLOAT"}}}, {"name": "model_59/tf.strided_slice_35/StridedSlice", "op": "StridedSlice", "input": ["model_59/tf.math.multiply_527/Mul", "model_59/tf.strided_slice_35/ones_like/tensor", "model_59/tf.strided_slice_35/StridedSlice/end", "model_59/tf.strided_slice_35/ones_like"], "attr": {"shrink_axis_mask": {"i": "0"}, "new_axis_mask": {"i": "0"}, "Index": {"type": "DT_INT64"}, "begin_mask": {"i": "15"}, "T": {"type": "DT_FLOAT"}, "end_mask": {"i": "7"}, "ellipsis_mask": {"i": "0"}}}, {"name": "model_59/tf.strided_slice_36/StridedSlice", "op": "StridedSlice", "input": ["model_59/tf.math.multiply_527/Mul", "model_59/tf.strided_slice_36/ones_like/tensor", "model_59/tf.strided_slice_36/StridedSlice/end", "model_59/tf.strided_slice_36/ones_like"], "attr": {"shrink_axis_mask": {"i": "0"}, "new_axis_mask": {"i": "0"}, "Index": {"type": "DT_INT64"}, "begin_mask": {"i": "7"}, "T": {"type": "DT_FLOAT"}, "end_mask": {"i": "7"}, "ellipsis_mask": {"i": "0"}}}, {"name": "model_59/tf.reshape_26/Reshape", "op": "Reshape", "input": ["model_59/tf.compat.v1.transpose_201/transpose", "model_59/tf.reshape_26/Reshape/shape"], "attr": {"T": {"type": "DT_FLOAT"}, "Tshape": {"type": "DT_INT32"}}}, {"name": "model_59/tf.math.add_182/Add", "op": "_FusedConv2D", "input": ["model_59/tf.strided_slice_36/StridedSlice", "model_59/tf.nn.convolution_260/convolution/filter", "model_59/tf.math.add_182/Add/y"], "device": "/device:CPU:0", "attr": {"num_host_args": {"i": "0"}, "data_format": {"s": "TkhXQw=="}, "filter_format": {"s": "SFdJTw=="}, "fused_ops": {"list": {"s": ["Qmlhc0FkZA=="]}}, "num_args": {"i": "1"}, "strides": {"list": {"i": ["1", "1", "1", "1"]}}, "TArgs": {"list": {"type": ["DT_FLOAT"]}}, "padding": {"s": "U0FNRQ=="}, "use_cudnn_on_gpu": {"b": true}, "leakyrelu_alpha": {"f": 0.2}, "epsilon": {"f": 0.0}, "T": {"type": "DT_FLOAT"}, "explicit_paddings": {"list": {}}, "dilations": {"list": {"i": ["1", "1", "1", "1"]}}}}, {"name": "model_59/tf.math.sigmoid_119/Sigmoid", "op": "Sigmoid", "input": ["model_59/tf.math.add_182/Add"], "attr": {"T": {"type": "DT_FLOAT"}}}, {"name": "model_59/tf.math.multiply_531/Mul", "op": "Mul", "input": ["model_59/tf.math.add_182/Add", "model_59/tf.math.sigmoid_119/Sigmoid"], "attr": {"T": {"type": "DT_FLOAT"}}}, {"name": "model_59/tf.math.add_183/Add", "op": "_FusedConv2D", "input": ["model_59/tf.math.multiply_531/Mul", "model_59/tf.nn.convolution_261/convolution/filter", "model_59/tf.math.add_183/Add/y"], "device": "/device:CPU:0", "attr": {"num_host_args": {"i": "0"}, "data_format": {"s": "TkhXQw=="}, "filter_format": {"s": "SFdJTw=="}, "strides": {"list": {"i": ["1", "1", "1", "1"]}}, "num_args": {"i": "1"}, "fused_ops": {"list": {"s": ["Qmlhc0FkZA=="]}}, "TArgs": {"list": {"type": ["DT_FLOAT"]}}, "padding": {"s": "U0FNRQ=="}, "use_cudnn_on_gpu": {"b": true}, "leakyrelu_alpha": {"f": 0.2}, "epsilon": {"f": 0.0}, "T": {"type": "DT_FLOAT"}, "explicit_paddings": {"list": {}}, "dilations": {"list": {"i": ["1", "1", "1", "1"]}}}}, {"name": "model_59/tf.math.sigmoid_120/Sigmoid", "op": "Sigmoid", "input": ["model_59/tf.math.add_183/Add"], "attr": {"T": {"type": "DT_FLOAT"}}}, {"name": "model_59/tf.math.multiply_535/Mul", "op": "Mul", "input": ["model_59/tf.math.add_183/Add", "model_59/tf.math.sigmoid_120/Sigmoid"], "attr": {"T": {"type": "DT_FLOAT"}}}, {"name": "model_59/tf.concat_42/concat", "op": "ConcatV2", "input": ["model_59/tf.strided_slice_35/StridedSlice", "model_59/tf.strided_slice_36/StridedSlice", "model_59/tf.math.multiply_535/Mul", "model_59/tf.concat_42/concat/axis"], "attr": {"N": {"i": "3"}, "T": {"type": "DT_FLOAT"}, "Tidx": {"type": "DT_INT32"}}}, {"name": "model_59/tf.math.add_184/Add", "op": "_FusedConv2D", "input": ["model_59/tf.concat_42/concat", "model_59/tf.nn.convolution_262/convolution/filter", "model_59/tf.math.add_184/Add/y"], "device": "/device:CPU:0", "attr": {"num_host_args": {"i": "0"}, "data_format": {"s": "TkhXQw=="}, "filter_format": {"s": "SFdJTw=="}, "fused_ops": {"list": {"s": ["Qmlhc0FkZA=="]}}, "num_args": {"i": "1"}, "strides": {"list": {"i": ["1", "1", "1", "1"]}}, "TArgs": {"list": {"type": ["DT_FLOAT"]}}, "padding": {"s": "U0FNRQ=="}, "use_cudnn_on_gpu": {"b": true}, "leakyrelu_alpha": {"f": 0.2}, "epsilon": {"f": 0.0}, "T": {"type": "DT_FLOAT"}, "explicit_paddings": {"list": {}}, "dilations": {"list": {"i": ["1", "1", "1", "1"]}}}}, {"name": "model_59/tf.math.sigmoid_121/Sigmoid", "op": "Sigmoid", "input": ["model_59/tf.math.add_184/Add"], "attr": {"T": {"type": "DT_FLOAT"}}}, {"name": "model_59/tf.math.multiply_539/Mul", "op": "Mul", "input": ["model_59/tf.math.add_184/Add", "model_59/tf.math.sigmoid_121/Sigmoid"], "attr": {"T": {"type": "DT_FLOAT"}}}, {"name": "model_59/tf.math.add_186/Add", "op": "_FusedConv2D", "input": ["model_59/tf.math.multiply_539/Mul", "model_59/tf.nn.convolution_264/convolution/filter", "model_59/tf.math.add_186/Add/y"], "device": "/device:CPU:0", "attr": {"num_host_args": {"i": "0"}, "data_format": {"s": "TkhXQw=="}, "filter_format": {"s": "SFdJTw=="}, "strides": {"list": {"i": ["1", "1", "1", "1"]}}, "num_args": {"i": "1"}, "fused_ops": {"list": {"s": ["Qmlhc0FkZA=="]}}, "TArgs": {"list": {"type": ["DT_FLOAT"]}}, "padding": {"s": "U0FNRQ=="}, "use_cudnn_on_gpu": {"b": true}, "leakyrelu_alpha": {"f": 0.2}, "epsilon": {"f": 0.0}, "T": {"type": "DT_FLOAT"}, "explicit_paddings": {"list": {}}, "dilations": {"list": {"i": ["1", "1", "1", "1"]}}}}, {"name": "model_59/tf.math.add_187/Add", "op": "_FusedConv2D", "input": ["model_59/tf.math.multiply_539/Mul", "model_59/tf.nn.convolution_265/convolution/filter", "model_59/tf.math.add_187/Add/y"], "device": "/device:CPU:0", "attr": {"num_host_args": {"i": "0"}, "data_format": {"s": "TkhXQw=="}, "filter_format": {"s": "SFdJTw=="}, "fused_ops": {"list": {"s": ["Qmlhc0FkZA=="]}}, "num_args": {"i": "1"}, "strides": {"list": {"i": ["1", "1", "1", "1"]}}, "TArgs": {"list": {"type": ["DT_FLOAT"]}}, "padding": {"s": "U0FNRQ=="}, "use_cudnn_on_gpu": {"b": true}, "leakyrelu_alpha": {"f": 0.2}, "epsilon": {"f": 0.0}, "T": {"type": "DT_FLOAT"}, "explicit_paddings": {"list": {}}, "dilations": {"list": {"i": ["1", "1", "1", "1"]}}}}, {"name": "model_59/tf.compat.v1.pad_13/Pad", "op": "Pad", "input": ["model_59/tf.math.multiply_539/Mul", "model_59/tf.compat.v1.pad_13/Pad/paddings"], "attr": {"Tpaddings": {"type": "DT_INT32"}, "T": {"type": "DT_FLOAT"}}}, {"name": "model_59/tf.math.sigmoid_123/Sigmoid", "op": "Sigmoid", "input": ["model_59/tf.math.add_186/Add"], "attr": {"T": {"type": "DT_FLOAT"}}}, {"name": "model_59/tf.math.sigmoid_124/Sigmoid", "op": "Sigmoid", "input": ["model_59/tf.math.add_187/Add"], "attr": {"T": {"type": "DT_FLOAT"}}}, {"name": "model_59/tf.math.add_185/Add", "op": "_FusedConv2D", "input": ["model_59/tf.compat.v1.pad_13/Pad", "model_59/tf.nn.convolution_263/convolution/filter", "model_59/tf.math.add_185/Add/y"], "device": "/device:CPU:0", "attr": {"num_host_args": {"i": "0"}, "data_format": {"s": "TkhXQw=="}, "filter_format": {"s": "SFdJTw=="}, "strides": {"list": {"i": ["1", "2", "2", "1"]}}, "num_args": {"i": "1"}, "fused_ops": {"list": {"s": ["Qmlhc0FkZA=="]}}, "TArgs": {"list": {"type": ["DT_FLOAT"]}}, "padding": {"s": "VkFMSUQ="}, "use_cudnn_on_gpu": {"b": true}, "leakyrelu_alpha": {"f": 0.2}, "epsilon": {"f": 0.0}, "T": {"type": "DT_FLOAT"}, "explicit_paddings": {"list": {}}, "dilations": {"list": {"i": ["1", "1", "1", "1"]}}}}, {"name": "model_59/tf.math.multiply_547/Mul", "op": "Mul", "input": ["model_59/tf.math.add_186/Add", "model_59/tf.math.sigmoid_123/Sigmoid"], "attr": {"T": {"type": "DT_FLOAT"}}}, {"name": "model_59/tf.math.multiply_551/Mul", "op": "Mul", "input": ["model_59/tf.math.add_187/Add", "model_59/tf.math.sigmoid_124/Sigmoid"], "attr": {"T": {"type": "DT_FLOAT"}}}, {"name": "model_59/tf.math.sigmoid_122/Sigmoid", "op": "Sigmoid", "input": ["model_59/tf.math.add_185/Add"], "attr": {"T": {"type": "DT_FLOAT"}}}, {"name": "model_59/tf.math.add_188/Add", "op": "_FusedConv2D", "input": ["model_59/tf.math.multiply_547/Mul", "model_59/tf.nn.convolution_266/convolution/filter", "model_59/tf.math.add_188/Add/y"], "device": "/device:CPU:0", "attr": {"num_host_args": {"i": "0"}, "data_format": {"s": "TkhXQw=="}, "filter_format": {"s": "SFdJTw=="}, "fused_ops": {"list": {"s": ["Qmlhc0FkZA=="]}}, "num_args": {"i": "1"}, "strides": {"list": {"i": ["1", "1", "1", "1"]}}, "TArgs": {"list": {"type": ["DT_FLOAT"]}}, "padding": {"s": "U0FNRQ=="}, "use_cudnn_on_gpu": {"b": true}, "leakyrelu_alpha": {"f": 0.2}, "epsilon": {"f": 0.0}, "T": {"type": "DT_FLOAT"}, "explicit_paddings": {"list": {}}, "dilations": {"list": {"i": ["1", "1", "1", "1"]}}}}, {"name": "model_59/tf.math.add_189/Add", "op": "_FusedConv2D", "input": ["model_59/tf.math.multiply_551/Mul", "model_59/tf.nn.convolution_267/convolution/filter", "model_59/tf.math.add_189/Add/y"], "device": "/device:CPU:0", "attr": {"num_host_args": {"i": "0"}, "data_format": {"s": "TkhXQw=="}, "filter_format": {"s": "SFdJTw=="}, "fused_ops": {"list": {"s": ["Qmlhc0FkZA=="]}}, "num_args": {"i": "1"}, "strides": {"list": {"i": ["1", "1", "1", "1"]}}, "TArgs": {"list": {"type": ["DT_FLOAT"]}}, "padding": {"s": "U0FNRQ=="}, "use_cudnn_on_gpu": {"b": true}, "leakyrelu_alpha": {"f": 0.2}, "epsilon": {"f": 0.0}, "T": {"type": "DT_FLOAT"}, "explicit_paddings": {"list": {}}, "dilations": {"list": {"i": ["1", "1", "1", "1"]}}}}, {"name": "model_59/tf.math.multiply_543/Mul", "op": "Mul", "input": ["model_59/tf.math.add_185/Add", "model_59/tf.math.sigmoid_122/Sigmoid"], "attr": {"T": {"type": "DT_FLOAT"}}}, {"name": "model_59/tf.math.sigmoid_125/Sigmoid", "op": "Sigmoid", "input": ["model_59/tf.math.add_188/Add"], "attr": {"T": {"type": "DT_FLOAT"}}}, {"name": "model_59/tf.math.sigmoid_126/Sigmoid", "op": "Sigmoid", "input": ["model_59/tf.math.add_189/Add"], "attr": {"T": {"type": "DT_FLOAT"}}}, {"name": "model_59/tf.concat_43/concat", "op": "ConcatV2", "input": ["model_59/tf.math.multiply_543/Mul", "model_59/tf.math.multiply_471/Mul", "model_59/tf.concat_43/concat/axis"], "attr": {"N": {"i": "2"}, "Tidx": {"type": "DT_INT32"}, "T": {"type": "DT_FLOAT"}}}, {"name": "model_59/tf.math.multiply_555/Mul", "op": "Mul", "input": ["model_59/tf.math.add_188/Add", "model_59/tf.math.sigmoid_125/Sigmoid"], "attr": {"T": {"type": "DT_FLOAT"}}}, {"name": "model_59/tf.math.multiply_559/Mul", "op": "Mul", "input": ["model_59/tf.math.add_189/Add", "model_59/tf.math.sigmoid_126/Sigmoid"], "attr": {"T": {"type": "DT_FLOAT"}}}, {"name": "model_59/tf.math.add_190/Add", "op": "_FusedConv2D", "input": ["model_59/tf.concat_43/concat", "model_59/tf.nn.convolution_268/convolution/filter", "model_59/tf.math.add_190/Add/y"], "device": "/device:CPU:0", "attr": {"num_host_args": {"i": "0"}, "data_format": {"s": "TkhXQw=="}, "filter_format": {"s": "SFdJTw=="}, "fused_ops": {"list": {"s": ["Qmlhc0FkZA=="]}}, "num_args": {"i": "1"}, "strides": {"list": {"i": ["1", "1", "1", "1"]}}, "TArgs": {"list": {"type": ["DT_FLOAT"]}}, "padding": {"s": "U0FNRQ=="}, "use_cudnn_on_gpu": {"b": true}, "leakyrelu_alpha": {"f": 0.2}, "epsilon": {"f": 0.0}, "T": {"type": "DT_FLOAT"}, "explicit_paddings": {"list": {}}, "dilations": {"list": {"i": ["1", "1", "1", "1"]}}}}, {"name": "model_59/tf.math.add_191/Add", "op": "_FusedConv2D", "input": ["model_59/tf.math.multiply_555/Mul", "model_59/tf.nn.convolution_269/convolution/filter", "model_59/tf.math.add_191/Add/y"], "device": "/device:CPU:0", "attr": {"num_host_args": {"i": "0"}, "data_format": {"s": "TkhXQw=="}, "filter_format": {"s": "SFdJTw=="}, "strides": {"list": {"i": ["1", "1", "1", "1"]}}, "num_args": {"i": "1"}, "fused_ops": {"list": {"s": ["Qmlhc0FkZA=="]}}, "TArgs": {"list": {"type": ["DT_FLOAT"]}}, "padding": {"s": "U0FNRQ=="}, "use_cudnn_on_gpu": {"b": true}, "leakyrelu_alpha": {"f": 0.2}, "epsilon": {"f": 0.0}, "T": {"type": "DT_FLOAT"}, "explicit_paddings": {"list": {}}, "dilations": {"list": {"i": ["1", "1", "1", "1"]}}}}, {"name": "model_59/tf.math.add_192/Add", "op": "_FusedConv2D", "input": ["model_59/tf.math.multiply_559/Mul", "model_59/tf.nn.convolution_270/convolution/filter", "model_59/tf.math.add_192/Add/y"], "device": "/device:CPU:0", "attr": {"num_host_args": {"i": "0"}, "data_format": {"s": "TkhXQw=="}, "filter_format": {"s": "SFdJTw=="}, "strides": {"list": {"i": ["1", "1", "1", "1"]}}, "num_args": {"i": "1"}, "fused_ops": {"list": {"s": ["Qmlhc0FkZA=="]}}, "TArgs": {"list": {"type": ["DT_FLOAT"]}}, "padding": {"s": "U0FNRQ=="}, "use_cudnn_on_gpu": {"b": true}, "leakyrelu_alpha": {"f": 0.2}, "epsilon": {"f": 0.0}, "T": {"type": "DT_FLOAT"}, "explicit_paddings": {"list": {}}, "dilations": {"list": {"i": ["1", "1", "1", "1"]}}}}, {"name": "model_59/tf.math.sigmoid_127/Sigmoid", "op": "Sigmoid", "input": ["model_59/tf.math.add_190/Add"], "attr": {"T": {"type": "DT_FLOAT"}}}, {"name": "model_59/tf.concat_44/concat", "op": "ConcatV2", "input": ["model_59/tf.math.add_191/Add", "model_59/tf.math.add_192/Add", "model_59/tf.concat_44/concat/axis"], "attr": {"N": {"i": "2"}, "Tidx": {"type": "DT_INT32"}, "T": {"type": "DT_FLOAT"}}}, {"name": "model_59/tf.math.multiply_563/Mul", "op": "Mul", "input": ["model_59/tf.math.add_190/Add", "model_59/tf.math.sigmoid_127/Sigmoid"], "attr": {"T": {"type": "DT_FLOAT"}}}, {"name": "model_59/tf.compat.v1.transpose_215/transpose", "op": "Transpose", "input": ["model_59/tf.concat_44/concat", "model_59/tf.compat.v1.transpose_215/transpose/perm"], "attr": {"Tperm": {"type": "DT_INT32"}, "T": {"type": "DT_FLOAT"}}}, {"name": "model_59/tf.strided_slice_37/StridedSlice", "op": "StridedSlice", "input": ["model_59/tf.math.multiply_563/Mul", "model_59/tf.strided_slice_37/ones_like/tensor", "model_59/tf.strided_slice_37/StridedSlice/end", "model_59/tf.strided_slice_37/ones_like"], "attr": {"shrink_axis_mask": {"i": "0"}, "Index": {"type": "DT_INT64"}, "new_axis_mask": {"i": "0"}, "begin_mask": {"i": "15"}, "T": {"type": "DT_FLOAT"}, "end_mask": {"i": "7"}, "ellipsis_mask": {"i": "0"}}}, {"name": "model_59/tf.strided_slice_38/StridedSlice", "op": "StridedSlice", "input": ["model_59/tf.math.multiply_563/Mul", "model_59/tf.strided_slice_38/ones_like/tensor", "model_59/tf.strided_slice_38/StridedSlice/end", "model_59/tf.strided_slice_38/ones_like"], "attr": {"shrink_axis_mask": {"i": "0"}, "new_axis_mask": {"i": "0"}, "Index": {"type": "DT_INT64"}, "begin_mask": {"i": "7"}, "end_mask": {"i": "7"}, "T": {"type": "DT_FLOAT"}, "ellipsis_mask": {"i": "0"}}}, {"name": "model_59/tf.reshape_29/Reshape", "op": "Reshape", "input": ["model_59/tf.compat.v1.transpose_215/transpose", "model_59/tf.reshape_29/Reshape/shape"], "attr": {"T": {"type": "DT_FLOAT"}, "Tshape": {"type": "DT_INT32"}}}, {"name": "model_59/tf.math.add_193/Add", "op": "_FusedConv2D", "input": ["model_59/tf.strided_slice_38/StridedSlice", "model_59/tf.nn.convolution_271/convolution/filter", "model_59/tf.math.add_193/Add/y"], "device": "/device:CPU:0", "attr": {"num_host_args": {"i": "0"}, "data_format": {"s": "TkhXQw=="}, "filter_format": {"s": "SFdJTw=="}, "strides": {"list": {"i": ["1", "1", "1", "1"]}}, "num_args": {"i": "1"}, "fused_ops": {"list": {"s": ["Qmlhc0FkZA=="]}}, "TArgs": {"list": {"type": ["DT_FLOAT"]}}, "padding": {"s": "U0FNRQ=="}, "use_cudnn_on_gpu": {"b": true}, "leakyrelu_alpha": {"f": 0.2}, "epsilon": {"f": 0.0}, "T": {"type": "DT_FLOAT"}, "explicit_paddings": {"list": {}}, "dilations": {"list": {"i": ["1", "1", "1", "1"]}}}}, {"name": "model_59/tf.math.sigmoid_128/Sigmoid", "op": "Sigmoid", "input": ["model_59/tf.math.add_193/Add"], "attr": {"T": {"type": "DT_FLOAT"}}}, {"name": "model_59/tf.math.multiply_567/Mul", "op": "Mul", "input": ["model_59/tf.math.add_193/Add", "model_59/tf.math.sigmoid_128/Sigmoid"], "attr": {"T": {"type": "DT_FLOAT"}}}, {"name": "model_59/tf.math.add_194/Add", "op": "_FusedConv2D", "input": ["model_59/tf.math.multiply_567/Mul", "model_59/tf.nn.convolution_272/convolution/filter", "model_59/tf.math.add_194/Add/y"], "device": "/device:CPU:0", "attr": {"num_host_args": {"i": "0"}, "data_format": {"s": "TkhXQw=="}, "filter_format": {"s": "SFdJTw=="}, "strides": {"list": {"i": ["1", "1", "1", "1"]}}, "num_args": {"i": "1"}, "fused_ops": {"list": {"s": ["Qmlhc0FkZA=="]}}, "TArgs": {"list": {"type": ["DT_FLOAT"]}}, "padding": {"s": "U0FNRQ=="}, "use_cudnn_on_gpu": {"b": true}, "leakyrelu_alpha": {"f": 0.2}, "epsilon": {"f": 0.0}, "T": {"type": "DT_FLOAT"}, "explicit_paddings": {"list": {}}, "dilations": {"list": {"i": ["1", "1", "1", "1"]}}}}, {"name": "model_59/tf.math.sigmoid_129/Sigmoid", "op": "Sigmoid", "input": ["model_59/tf.math.add_194/Add"], "attr": {"T": {"type": "DT_FLOAT"}}}, {"name": "model_59/tf.math.multiply_571/Mul", "op": "Mul", "input": ["model_59/tf.math.add_194/Add", "model_59/tf.math.sigmoid_129/Sigmoid"], "attr": {"T": {"type": "DT_FLOAT"}}}, {"name": "model_59/tf.concat_45/concat", "op": "ConcatV2", "input": ["model_59/tf.strided_slice_37/StridedSlice", "model_59/tf.strided_slice_38/StridedSlice", "model_59/tf.math.multiply_571/Mul", "model_59/tf.concat_45/concat/axis"], "attr": {"N": {"i": "3"}, "T": {"type": "DT_FLOAT"}, "Tidx": {"type": "DT_INT32"}}}, {"name": "model_59/tf.math.add_195/Add", "op": "_FusedConv2D", "input": ["model_59/tf.concat_45/concat", "model_59/tf.nn.convolution_273/convolution/filter", "model_59/tf.math.add_195/Add/y"], "device": "/device:CPU:0", "attr": {"num_host_args": {"i": "0"}, "data_format": {"s": "TkhXQw=="}, "filter_format": {"s": "SFdJTw=="}, "fused_ops": {"list": {"s": ["Qmlhc0FkZA=="]}}, "num_args": {"i": "1"}, "strides": {"list": {"i": ["1", "1", "1", "1"]}}, "TArgs": {"list": {"type": ["DT_FLOAT"]}}, "padding": {"s": "U0FNRQ=="}, "use_cudnn_on_gpu": {"b": true}, "leakyrelu_alpha": {"f": 0.2}, "epsilon": {"f": 0.0}, "T": {"type": "DT_FLOAT"}, "explicit_paddings": {"list": {}}, "dilations": {"list": {"i": ["1", "1", "1", "1"]}}}}, {"name": "model_59/tf.math.sigmoid_130/Sigmoid", "op": "Sigmoid", "input": ["model_59/tf.math.add_195/Add"], "attr": {"T": {"type": "DT_FLOAT"}}}, {"name": "model_59/tf.math.multiply_575/Mul", "op": "Mul", "input": ["model_59/tf.math.add_195/Add", "model_59/tf.math.sigmoid_130/Sigmoid"], "attr": {"T": {"type": "DT_FLOAT"}}}, {"name": "model_59/tf.math.add_196/Add", "op": "_FusedConv2D", "input": ["model_59/tf.math.multiply_575/Mul", "model_59/tf.nn.convolution_274/convolution/filter", "model_59/tf.math.add_196/Add/y"], "device": "/device:CPU:0", "attr": {"num_host_args": {"i": "0"}, "data_format": {"s": "TkhXQw=="}, "filter_format": {"s": "SFdJTw=="}, "strides": {"list": {"i": ["1", "1", "1", "1"]}}, "num_args": {"i": "1"}, "fused_ops": {"list": {"s": ["Qmlhc0FkZA=="]}}, "TArgs": {"list": {"type": ["DT_FLOAT"]}}, "padding": {"s": "U0FNRQ=="}, "use_cudnn_on_gpu": {"b": true}, "leakyrelu_alpha": {"f": 0.2}, "epsilon": {"f": 0.0}, "T": {"type": "DT_FLOAT"}, "explicit_paddings": {"list": {}}, "dilations": {"list": {"i": ["1", "1", "1", "1"]}}}}, {"name": "model_59/tf.math.add_197/Add", "op": "_FusedConv2D", "input": ["model_59/tf.math.multiply_575/Mul", "model_59/tf.nn.convolution_275/convolution/filter", "model_59/tf.math.add_197/Add/y"], "device": "/device:CPU:0", "attr": {"num_host_args": {"i": "0"}, "data_format": {"s": "TkhXQw=="}, "filter_format": {"s": "SFdJTw=="}, "strides": {"list": {"i": ["1", "1", "1", "1"]}}, "num_args": {"i": "1"}, "fused_ops": {"list": {"s": ["Qmlhc0FkZA=="]}}, "TArgs": {"list": {"type": ["DT_FLOAT"]}}, "padding": {"s": "U0FNRQ=="}, "use_cudnn_on_gpu": {"b": true}, "leakyrelu_alpha": {"f": 0.2}, "epsilon": {"f": 0.0}, "T": {"type": "DT_FLOAT"}, "explicit_paddings": {"list": {}}, "dilations": {"list": {"i": ["1", "1", "1", "1"]}}}}, {"name": "model_59/tf.math.sigmoid_131/Sigmoid", "op": "Sigmoid", "input": ["model_59/tf.math.add_196/Add"], "attr": {"T": {"type": "DT_FLOAT"}}}, {"name": "model_59/tf.math.sigmoid_132/Sigmoid", "op": "Sigmoid", "input": ["model_59/tf.math.add_197/Add"], "attr": {"T": {"type": "DT_FLOAT"}}}, {"name": "model_59/tf.math.multiply_579/Mul", "op": "Mul", "input": ["model_59/tf.math.add_196/Add", "model_59/tf.math.sigmoid_131/Sigmoid"], "attr": {"T": {"type": "DT_FLOAT"}}}, {"name": "model_59/tf.math.multiply_583/Mul", "op": "Mul", "input": ["model_59/tf.math.add_197/Add", "model_59/tf.math.sigmoid_132/Sigmoid"], "attr": {"T": {"type": "DT_FLOAT"}}}, {"name": "model_59/tf.math.add_198/Add", "op": "_FusedConv2D", "input": ["model_59/tf.math.multiply_579/Mul", "model_59/tf.nn.convolution_276/convolution/filter", "model_59/tf.math.add_198/Add/y"], "device": "/device:CPU:0", "attr": {"num_host_args": {"i": "0"}, "data_format": {"s": "TkhXQw=="}, "filter_format": {"s": "SFdJTw=="}, "fused_ops": {"list": {"s": ["Qmlhc0FkZA=="]}}, "num_args": {"i": "1"}, "strides": {"list": {"i": ["1", "1", "1", "1"]}}, "TArgs": {"list": {"type": ["DT_FLOAT"]}}, "padding": {"s": "U0FNRQ=="}, "use_cudnn_on_gpu": {"b": true}, "leakyrelu_alpha": {"f": 0.2}, "epsilon": {"f": 0.0}, "T": {"type": "DT_FLOAT"}, "explicit_paddings": {"list": {}}, "dilations": {"list": {"i": ["1", "1", "1", "1"]}}}}, {"name": "model_59/tf.math.add_199/Add", "op": "_FusedConv2D", "input": ["model_59/tf.math.multiply_583/Mul", "model_59/tf.nn.convolution_277/convolution/filter", "model_59/tf.math.add_199/Add/y"], "device": "/device:CPU:0", "attr": {"num_host_args": {"i": "0"}, "data_format": {"s": "TkhXQw=="}, "filter_format": {"s": "SFdJTw=="}, "fused_ops": {"list": {"s": ["Qmlhc0FkZA=="]}}, "num_args": {"i": "1"}, "strides": {"list": {"i": ["1", "1", "1", "1"]}}, "TArgs": {"list": {"type": ["DT_FLOAT"]}}, "padding": {"s": "U0FNRQ=="}, "use_cudnn_on_gpu": {"b": true}, "leakyrelu_alpha": {"f": 0.2}, "epsilon": {"f": 0.0}, "T": {"type": "DT_FLOAT"}, "explicit_paddings": {"list": {}}, "dilations": {"list": {"i": ["1", "1", "1", "1"]}}}}, {"name": "model_59/tf.math.sigmoid_133/Sigmoid", "op": "Sigmoid", "input": ["model_59/tf.math.add_198/Add"], "attr": {"T": {"type": "DT_FLOAT"}}}, {"name": "model_59/tf.math.sigmoid_134/Sigmoid", "op": "Sigmoid", "input": ["model_59/tf.math.add_199/Add"], "attr": {"T": {"type": "DT_FLOAT"}}}, {"name": "model_59/tf.math.multiply_587/Mul", "op": "Mul", "input": ["model_59/tf.math.add_198/Add", "model_59/tf.math.sigmoid_133/Sigmoid"], "attr": {"T": {"type": "DT_FLOAT"}}}, {"name": "model_59/tf.math.multiply_591/Mul", "op": "Mul", "input": ["model_59/tf.math.add_199/Add", "model_59/tf.math.sigmoid_134/Sigmoid"], "attr": {"T": {"type": "DT_FLOAT"}}}, {"name": "model_59/tf.math.add_200/Add", "op": "_FusedConv2D", "input": ["model_59/tf.math.multiply_587/Mul", "model_59/tf.nn.convolution_278/convolution/filter", "model_59/tf.math.add_200/Add/y"], "device": "/device:CPU:0", "attr": {"num_host_args": {"i": "0"}, "data_format": {"s": "TkhXQw=="}, "filter_format": {"s": "SFdJTw=="}, "fused_ops": {"list": {"s": ["Qmlhc0FkZA=="]}}, "num_args": {"i": "1"}, "strides": {"list": {"i": ["1", "1", "1", "1"]}}, "TArgs": {"list": {"type": ["DT_FLOAT"]}}, "padding": {"s": "U0FNRQ=="}, "use_cudnn_on_gpu": {"b": true}, "leakyrelu_alpha": {"f": 0.2}, "epsilon": {"f": 0.0}, "T": {"type": "DT_FLOAT"}, "explicit_paddings": {"list": {}}, "dilations": {"list": {"i": ["1", "1", "1", "1"]}}}}, {"name": "model_59/tf.math.add_201/Add", "op": "_FusedConv2D", "input": ["model_59/tf.math.multiply_591/Mul", "model_59/tf.nn.convolution_279/convolution/filter", "model_59/tf.math.add_201/Add/y"], "device": "/device:CPU:0", "attr": {"num_host_args": {"i": "0"}, "data_format": {"s": "TkhXQw=="}, "filter_format": {"s": "SFdJTw=="}, "fused_ops": {"list": {"s": ["Qmlhc0FkZA=="]}}, "num_args": {"i": "1"}, "strides": {"list": {"i": ["1", "1", "1", "1"]}}, "TArgs": {"list": {"type": ["DT_FLOAT"]}}, "padding": {"s": "U0FNRQ=="}, "use_cudnn_on_gpu": {"b": true}, "leakyrelu_alpha": {"f": 0.2}, "epsilon": {"f": 0.0}, "T": {"type": "DT_FLOAT"}, "explicit_paddings": {"list": {}}, "dilations": {"list": {"i": ["1", "1", "1", "1"]}}}}, {"name": "model_59/tf.concat_46/concat", "op": "ConcatV2", "input": ["model_59/tf.math.add_200/Add", "model_59/tf.math.add_201/Add", "model_59/tf.concat_46/concat/axis"], "attr": {"N": {"i": "2"}, "Tidx": {"type": "DT_INT32"}, "T": {"type": "DT_FLOAT"}}}, {"name": "model_59/tf.compat.v1.transpose_227/transpose", "op": "Transpose", "input": ["model_59/tf.concat_46/concat", "model_59/tf.compat.v1.transpose_227/transpose/perm"], "attr": {"Tperm": {"type": "DT_INT32"}, "T": {"type": "DT_FLOAT"}}}, {"name": "model_59/tf.reshape_32/Reshape", "op": "Reshape", "input": ["model_59/tf.compat.v1.transpose_227/transpose", "model_59/tf.reshape_32/Reshape/shape"], "attr": {"T": {"type": "DT_FLOAT"}, "Tshape": {"type": "DT_INT32"}}}, {"name": "model_59/tf.concat_47/concat", "op": "ConcatV2", "input": ["model_59/tf.reshape_26/Reshape", "model_59/tf.reshape_29/Reshape", "model_59/tf.reshape_32/Reshape", "model_59/tf.concat_47/concat/axis"], "attr": {"N": {"i": "3"}, "T": {"type": "DT_FLOAT"}, "Tidx": {"type": "DT_INT32"}}}, {"name": "model_59/tf.strided_slice_40/StridedSlice", "op": "StridedSlice", "input": ["model_59/tf.concat_47/concat", "model_59/tf.strided_slice_40/StridedSlice/begin", "model_59/tf.strided_slice_40/StridedSlice/end", "model_59/tf.strided_slice_40/StridedSlice/strides"], "attr": {"shrink_axis_mask": {"i": "0"}, "Index": {"type": "DT_INT64"}, "new_axis_mask": {"i": "0"}, "begin_mask": {"i": "5"}, "T": {"type": "DT_FLOAT"}, "end_mask": {"i": "5"}, "ellipsis_mask": {"i": "0"}}}, {"name": "model_59/tf.strided_slice_39/StridedSlice", "op": "StridedSlice", "input": ["model_59/tf.concat_47/concat", "model_59/tf.strided_slice_39/StridedSlice/begin", "model_59/tf.strided_slice_39/StridedSlice/end", "model_59/tf.strided_slice_39/StridedSlice/strides"], "attr": {"shrink_axis_mask": {"i": "0"}, "new_axis_mask": {"i": "0"}, "Index": {"type": "DT_INT64"}, "begin_mask": {"i": "7"}, "end_mask": {"i": "5"}, "T": {"type": "DT_FLOAT"}, "ellipsis_mask": {"i": "0"}}}, {"name": "model_59/tf.math.sigmoid_135/Sigmoid", "op": "Sigmoid", "input": ["model_59/tf.strided_slice_40/StridedSlice"], "attr": {"T": {"type": "DT_FLOAT"}}}, {"name": "model_59/tf.reshape_35/Reshape", "op": "Reshape", "input": ["model_59/tf.strided_slice_39/StridedSlice", "model_59/tf.reshape_35/Reshape/shape"], "attr": {"T": {"type": "DT_FLOAT"}, "Tshape": {"type": "DT_INT32"}}}, {"name": "model_59/tf.compat.v1.transpose_234/transpose", "op": "Transpose", "input": ["model_59/tf.reshape_35/Reshape", "model_59/tf.compat.v1.transpose_234/transpose/perm"], "attr": {"Tperm": {"type": "DT_INT32"}, "T": {"type": "DT_FLOAT"}}}, {"name": "model_59/tf.compat.v1.transpose_235/transpose", "op": "Transpose", "input": ["model_59/tf.compat.v1.transpose_234/transpose", "model_59/tf.compat.v1.transpose_235/transpose/perm"], "attr": {"Tperm": {"type": "DT_INT32"}, "T": {"type": "DT_FLOAT"}}}, {"name": "model_59/tf.nn.softmax_3//model.22/dfl/Softmax", "op": "Softmax", "input": ["model_59/tf.compat.v1.transpose_235/transpose"], "attr": {"T": {"type": "DT_FLOAT"}}}, {"name": "model_59/tf.nn.convolution_280/convolution", "op": "Conv2D", "input": ["model_59/tf.nn.softmax_3//model.22/dfl/Softmax", "model_59/tf.nn.convolution_280/convolution/filter"], "device": "/device:CPU:0", "attr": {"padding": {"s": "U0FNRQ=="}, "data_format": {"s": "TkhXQw=="}, "strides": {"list": {"i": ["1", "1", "1", "1"]}}, "use_cudnn_on_gpu": {"b": true}, "T": {"type": "DT_FLOAT"}, "explicit_paddings": {"list": {}}, "dilations": {"list": {"i": ["1", "1", "1", "1"]}}}}, {"name": "model_59/tf.compat.v1.transpose_240/transpose", "op": "Transpose", "input": ["model_59/tf.nn.convolution_280/convolution", "model_59/tf.compat.v1.transpose_240/transpose/perm"], "attr": {"Tperm": {"type": "DT_INT32"}, "T": {"type": "DT_FLOAT"}}}, {"name": "model_59/tf.reshape_38/Reshape", "op": "Reshape", "input": ["model_59/tf.compat.v1.transpose_240/transpose", "model_59/tf.reshape_38/Reshape/shape"], "attr": {"T": {"type": "DT_FLOAT"}, "Tshape": {"type": "DT_INT32"}}}, {"name": "model_59/tf.strided_slice_42/StridedSlice", "op": "StridedSlice", "input": ["model_59/tf.reshape_38/Reshape", "model_59/tf.strided_slice_42/ones_like/tensor", "model_59/tf.strided_slice_42/StridedSlice/end", "model_59/tf.strided_slice_42/ones_like"], "attr": {"shrink_axis_mask": {"i": "0"}, "Index": {"type": "DT_INT64"}, "new_axis_mask": {"i": "0"}, "begin_mask": {"i": "5"}, "end_mask": {"i": "5"}, "T": {"type": "DT_FLOAT"}, "ellipsis_mask": {"i": "0"}}}, {"name": "model_59/tf.strided_slice_41/StridedSlice", "op": "StridedSlice", "input": ["model_59/tf.reshape_38/Reshape", "model_59/tf.strided_slice_41/ones_like/tensor", "model_59/tf.strided_slice_41/StridedSlice/end", "model_59/tf.strided_slice_41/ones_like"], "attr": {"shrink_axis_mask": {"i": "0"}, "new_axis_mask": {"i": "0"}, "Index": {"type": "DT_INT64"}, "begin_mask": {"i": "7"}, "T": {"type": "DT_FLOAT"}, "end_mask": {"i": "5"}, "ellipsis_mask": {"i": "0"}}}, {"name": "model_59/tf.math.add_202/Add", "op": "AddV2", "input": ["model_59/tf.strided_slice_42/StridedSlice", "model_59/tf.math.add_202/Add/y"], "attr": {"T": {"type": "DT_FLOAT"}}}, {"name": "model_59/tf.math.subtract_2/Sub", "op": "Sub", "input": ["model_59/53869", "model_59/tf.strided_slice_41/StridedSlice"], "attr": {"T": {"type": "DT_FLOAT"}}}, {"name": "model_59/tf.math.add_203/Add", "op": "AddV2", "input": ["model_59/tf.math.subtract_2/Sub", "model_59/tf.math.add_202/Add"], "attr": {"T": {"type": "DT_FLOAT"}}}, {"name": "model_59/tf.math.subtract_3/Sub", "op": "Sub", "input": ["model_59/tf.math.add_202/Add", "model_59/tf.math.subtract_2/Sub"], "attr": {"T": {"type": "DT_FLOAT"}}}, {"name": "model_59/tf.math.divide_1/truediv", "op": "Mul", "input": ["model_59/tf.math.add_203/Add", "ConstantFolding/model_59/tf.math.divide_1/truediv_recip"], "attr": {"T": {"type": "DT_FLOAT"}}}, {"name": "model_59/tf.concat_51/concat", "op": "ConcatV2", "input": ["model_59/tf.math.divide_1/truediv", "model_59/tf.math.subtract_3/Sub", "model_59/tf.concat_51/concat/axis"], "attr": {"N": {"i": "2"}, "T": {"type": "DT_FLOAT"}, "Tidx": {"type": "DT_INT32"}}}, {"name": "model_59/tf.math.multiply_604/Mul", "op": "Mul", "input": ["model_59/tf.concat_51/concat", "model_59/tf.math.multiply_604/Mul/y"], "attr": {"T": {"type": "DT_FLOAT"}}}, {"name": "model_59/output0/concat", "op": "ConcatV2", "input": ["model_59/tf.math.multiply_604/Mul", "model_59/tf.math.sigmoid_135/Sigmoid", "model_59/output0/concat/axis"], "attr": {"N": {"i": "2"}, "T": {"type": "DT_FLOAT"}, "Tidx": {"type": "DT_INT32"}}}, {"name": "Identity", "op": "Identity", "input": ["model_59/output0/concat"], "attr": {"T": {"type": "DT_FLOAT"}}}], "library": {}, "versions": {"producer": 1994}}, "weightsManifest": [{"paths": ["group1-shard1of4.bin", "group1-shard2of4.bin", "group1-shard3of4.bin", "group1-shard4of4.bin"], "weights": [{"name": "ConstantFolding/model_59/tf.math.divide_1/truediv_recip", "shape": [], "dtype": "float32"}, {"name": "model_59/tf.strided_slice_42/ones_like/tensor", "shape": [3], "dtype": "int32"}, {"name": "model_59/tf.strided_slice_42/StridedSlice/end", "shape": [3], "dtype": "int32"}, {"name": "model_59/tf.strided_slice_42/ones_like", "shape": [3], "dtype": "int32"}, {"name": "model_59/tf.math.add_202/Add/y", "shape": [1, 2, 8400], "dtype": "float32"}, {"name": "model_59/53869", "shape": [1, 2, 8400], "dtype": "float32"}, {"name": "model_59/tf.strided_slice_39/StridedSlice/begin", "shape": [3], "dtype": "int32"}, {"name": "model_59/tf.strided_slice_39/StridedSlice/end", "shape": [3], "dtype": "int32"}, {"name": "model_59/tf.strided_slice_39/StridedSlice/strides", "shape": [3], "dtype": "int32"}, {"name": "model_59/tf.reshape_35/Reshape/shape", "shape": [4], "dtype": "int32"}, {"name": "model_59/tf.compat.v1.transpose_234/transpose/perm", "shape": [4], "dtype": "int32"}, {"name": "model_59/tf.compat.v1.transpose_235/transpose/perm", "shape": [4], "dtype": "int32"}, {"name": "model_59/tf.nn.convolution_280/convolution/filter", "shape": [1, 1, 16, 1], "dtype": "float32"}, {"name": "model_59/tf.compat.v1.transpose_240/transpose/perm", "shape": [4], "dtype": "int32"}, {"name": "model_59/tf.reshape_38/Reshape/shape", "shape": [3], "dtype": "int32"}, {"name": "model_59/tf.strided_slice_41/ones_like/tensor", "shape": [3], "dtype": "int32"}, {"name": "model_59/tf.strided_slice_41/StridedSlice/end", "shape": [3], "dtype": "int32"}, {"name": "model_59/tf.strided_slice_41/ones_like", "shape": [3], "dtype": "int32"}, {"name": "model_59/tf.concat_51/concat/axis", "shape": [], "dtype": "int32"}, {"name": "model_59/tf.math.multiply_604/Mul/y", "shape": [1, 1, 8400], "dtype": "float32"}, {"name": "model_59/tf.nn.convolution_249/convolution/filter", "shape": [3, 3, 64, 64], "dtype": "float32"}, {"name": "model_59/tf.math.add_171/Add/y", "shape": [64], "dtype": "float32"}, {"name": "model_59/tf.nn.convolution_251/convolution/filter", "shape": [3, 3, 64, 64], "dtype": "float32"}, {"name": "model_59/tf.math.add_173/Add/y", "shape": [64], "dtype": "float32"}, {"name": "model_59/tf.nn.convolution_256/convolution/filter", "shape": [1, 1, 64, 64], "dtype": "float32"}, {"name": "model_59/tf.math.add_178/Add/y", "shape": [64], "dtype": "float32"}, {"name": "model_59/tf.nn.convolution_250/convolution/filter", "shape": [3, 3, 64, 80], "dtype": "float32"}, {"name": "model_59/tf.math.add_172/Add/y", "shape": [80], "dtype": "float32"}, {"name": "model_59/tf.nn.convolution_254/convolution/filter", "shape": [3, 3, 80, 80], "dtype": "float32"}, {"name": "model_59/tf.math.add_176/Add/y", "shape": [80], "dtype": "float32"}, {"name": "model_59/tf.nn.convolution_259/convolution/filter", "shape": [1, 1, 80, 80], "dtype": "float32"}, {"name": "model_59/tf.math.add_181/Add/y", "shape": [80], "dtype": "float32"}, {"name": "model_59/tf.concat_41/concat/axis", "shape": [], "dtype": "int32"}, {"name": "model_59/tf.compat.v1.transpose_201/transpose/perm", "shape": [4], "dtype": "int32"}, {"name": "model_59/tf.reshape_26/Reshape/shape", "shape": [3], "dtype": "int32"}, {"name": "model_59/tf.nn.convolution_264/convolution/filter", "shape": [3, 3, 128, 64], "dtype": "float32"}, {"name": "model_59/tf.math.add_186/Add/y", "shape": [64], "dtype": "float32"}, {"name": "model_59/tf.nn.convolution_266/convolution/filter", "shape": [3, 3, 64, 64], "dtype": "float32"}, {"name": "model_59/tf.math.add_188/Add/y", "shape": [64], "dtype": "float32"}, {"name": "model_59/tf.nn.convolution_269/convolution/filter", "shape": [1, 1, 64, 64], "dtype": "float32"}, {"name": "model_59/tf.math.add_191/Add/y", "shape": [64], "dtype": "float32"}, {"name": "model_59/tf.nn.convolution_265/convolution/filter", "shape": [3, 3, 128, 80], "dtype": "float32"}, {"name": "model_59/tf.math.add_187/Add/y", "shape": [80], "dtype": "float32"}, {"name": "model_59/tf.nn.convolution_267/convolution/filter", "shape": [3, 3, 80, 80], "dtype": "float32"}, {"name": "model_59/tf.math.add_189/Add/y", "shape": [80], "dtype": "float32"}, {"name": "model_59/tf.nn.convolution_270/convolution/filter", "shape": [1, 1, 80, 80], "dtype": "float32"}, {"name": "model_59/tf.math.add_192/Add/y", "shape": [80], "dtype": "float32"}, {"name": "model_59/tf.concat_44/concat/axis", "shape": [], "dtype": "int32"}, {"name": "model_59/tf.compat.v1.transpose_215/transpose/perm", "shape": [4], "dtype": "int32"}, {"name": "model_59/tf.reshape_29/Reshape/shape", "shape": [3], "dtype": "int32"}, {"name": "model_59/tf.nn.convolution_274/convolution/filter", "shape": [3, 3, 256, 64], "dtype": "float32"}, {"name": "model_59/tf.math.add_196/Add/y", "shape": [64], "dtype": "float32"}, {"name": "model_59/tf.nn.convolution_276/convolution/filter", "shape": [3, 3, 64, 64], "dtype": "float32"}, {"name": "model_59/tf.math.add_198/Add/y", "shape": [64], "dtype": "float32"}, {"name": "model_59/tf.nn.convolution_278/convolution/filter", "shape": [1, 1, 64, 64], "dtype": "float32"}, {"name": "model_59/tf.math.add_200/Add/y", "shape": [64], "dtype": "float32"}, {"name": "model_59/tf.strided_slice_37/ones_like/tensor", "shape": [4], "dtype": "int32"}, {"name": "model_59/tf.strided_slice_37/StridedSlice/end", "shape": [4], "dtype": "int32"}, {"name": "model_59/tf.strided_slice_37/ones_like", "shape": [4], "dtype": "int32"}, {"name": "model_59/tf.strided_slice_35/ones_like/tensor", "shape": [4], "dtype": "int32"}, {"name": "model_59/tf.strided_slice_35/StridedSlice/end", "shape": [4], "dtype": "int32"}, {"name": "model_59/tf.strided_slice_35/ones_like", "shape": [4], "dtype": "int32"}, {"name": "model_59/tf.strided_slice_33/ones_like/tensor", "shape": [4], "dtype": "int32"}, {"name": "model_59/tf.strided_slice_33/StridedSlice/end", "shape": [4], "dtype": "int32"}, {"name": "model_59/tf.strided_slice_33/ones_like", "shape": [4], "dtype": "int32"}, {"name": "model_59/tf.image.resize_3/resize/size", "shape": [2], "dtype": "int32"}, {"name": "model_59/tf.concat_36/concat/axis", "shape": [], "dtype": "int32"}, {"name": "model_59/tf.nn.convolution_244/convolution/filter", "shape": [1, 1, 192, 64], "dtype": "float32"}, {"name": "model_59/tf.math.add_166/Add/y", "shape": [64], "dtype": "float32"}, {"name": "model_59/tf.strided_slice_34/ones_like/tensor", "shape": [4], "dtype": "int32"}, {"name": "model_59/tf.strided_slice_34/StridedSlice/end", "shape": [4], "dtype": "int32"}, {"name": "model_59/tf.strided_slice_34/ones_like", "shape": [4], "dtype": "int32"}, {"name": "model_59/tf.nn.convolution_245/convolution/filter", "shape": [3, 3, 32, 32], "dtype": "float32"}, {"name": "model_59/tf.math.add_167/Add/y", "shape": [32], "dtype": "float32"}, {"name": "model_59/tf.nn.convolution_246/convolution/filter", "shape": [3, 3, 32, 32], "dtype": "float32"}, {"name": "model_59/tf.math.add_168/Add/y", "shape": [32], "dtype": "float32"}, {"name": "model_59/tf.concat_37/concat/axis", "shape": [], "dtype": "int32"}, {"name": "model_59/tf.nn.convolution_247/convolution/filter", "shape": [1, 1, 96, 64], "dtype": "float32"}, {"name": "model_59/tf.math.add_169/Add/y", "shape": [64], "dtype": "float32"}, {"name": "model_59/tf.compat.v1.pad_12/Pad/paddings", "shape": [4, 2], "dtype": "int32"}, {"name": "model_59/tf.nn.convolution_248/convolution/filter", "shape": [3, 3, 64, 64], "dtype": "float32"}, {"name": "model_59/tf.math.add_170/Add/y", "shape": [64], "dtype": "float32"}, {"name": "model_59/tf.strided_slice_31/ones_like/tensor", "shape": [4], "dtype": "int32"}, {"name": "model_59/tf.strided_slice_31/StridedSlice/end", "shape": [4], "dtype": "int32"}, {"name": "model_59/tf.strided_slice_31/ones_like", "shape": [4], "dtype": "int32"}, {"name": "model_59/tf.image.resize_2/resize/size", "shape": [2], "dtype": "int32"}, {"name": "model_59/tf.concat_34/concat/axis", "shape": [], "dtype": "int32"}, {"name": "model_59/tf.nn.convolution_240/convolution/filter", "shape": [1, 1, 384, 128], "dtype": "float32"}, {"name": "model_59/tf.math.add_162/Add/y", "shape": [128], "dtype": "float32"}, {"name": "model_59/tf.strided_slice_32/ones_like/tensor", "shape": [4], "dtype": "int32"}, {"name": "model_59/tf.strided_slice_32/StridedSlice/end", "shape": [4], "dtype": "int32"}, {"name": "model_59/tf.strided_slice_32/ones_like", "shape": [4], "dtype": "int32"}, {"name": "model_59/tf.nn.convolution_241/convolution/filter", "shape": [3, 3, 64, 64], "dtype": "float32"}, {"name": "model_59/tf.math.add_163/Add/y", "shape": [64], "dtype": "float32"}, {"name": "model_59/tf.nn.convolution_242/convolution/filter", "shape": [3, 3, 64, 64], "dtype": "float32"}, {"name": "model_59/tf.math.add_164/Add/y", "shape": [64], "dtype": "float32"}, {"name": "model_59/tf.concat_35/concat/axis", "shape": [], "dtype": "int32"}, {"name": "model_59/tf.nn.convolution_243/convolution/filter", "shape": [1, 1, 192, 128], "dtype": "float32"}, {"name": "model_59/tf.math.add_165/Add/y", "shape": [128], "dtype": "float32"}, {"name": "model_59/tf.concat_38/concat/axis", "shape": [], "dtype": "int32"}, {"name": "model_59/tf.nn.convolution_255/convolution/filter", "shape": [1, 1, 192, 128], "dtype": "float32"}, {"name": "model_59/tf.math.add_177/Add/y", "shape": [128], "dtype": "float32"}, {"name": "model_59/tf.strided_slice_36/ones_like/tensor", "shape": [4], "dtype": "int32"}, {"name": "model_59/tf.strided_slice_36/StridedSlice/end", "shape": [4], "dtype": "int32"}, {"name": "model_59/tf.strided_slice_36/ones_like", "shape": [4], "dtype": "int32"}, {"name": "model_59/tf.nn.convolution_260/convolution/filter", "shape": [3, 3, 64, 64], "dtype": "float32"}, {"name": "model_59/tf.math.add_182/Add/y", "shape": [64], "dtype": "float32"}, {"name": "model_59/tf.nn.convolution_261/convolution/filter", "shape": [3, 3, 64, 64], "dtype": "float32"}, {"name": "model_59/tf.math.add_183/Add/y", "shape": [64], "dtype": "float32"}, {"name": "model_59/tf.concat_42/concat/axis", "shape": [], "dtype": "int32"}, {"name": "model_59/tf.nn.convolution_262/convolution/filter", "shape": [1, 1, 192, 128], "dtype": "float32"}, {"name": "model_59/tf.math.add_184/Add/y", "shape": [128], "dtype": "float32"}, {"name": "model_59/tf.compat.v1.pad_13/Pad/paddings", "shape": [4, 2], "dtype": "int32"}, {"name": "model_59/tf.nn.convolution_263/convolution/filter", "shape": [3, 3, 128, 128], "dtype": "float32"}, {"name": "model_59/tf.math.add_185/Add/y", "shape": [128], "dtype": "float32"}, {"name": "model_59/tf.strided_slice_29/ones_like/tensor", "shape": [4], "dtype": "int32"}, {"name": "model_59/tf.strided_slice_29/StridedSlice/end", "shape": [4], "dtype": "int32"}, {"name": "model_59/tf.strided_slice_29/ones_like", "shape": [4], "dtype": "int32"}, {"name": "model_59/tf.strided_slice_27/ones_like/tensor", "shape": [4], "dtype": "int32"}, {"name": "model_59/tf.strided_slice_27/StridedSlice/end", "shape": [4], "dtype": "int32"}, {"name": "model_59/tf.strided_slice_27/ones_like", "shape": [4], "dtype": "int32"}, {"name": "model_59/tf.strided_slice_25/ones_like/tensor", "shape": [4], "dtype": "int32"}, {"name": "model_59/tf.strided_slice_25/StridedSlice/end", "shape": [4], "dtype": "int32"}, {"name": "model_59/tf.strided_slice_25/ones_like", "shape": [4], "dtype": "int32"}, {"name": "model_59/tf.strided_slice_23/ones_like/tensor", "shape": [4], "dtype": "int32"}, {"name": "model_59/tf.strided_slice_23/StridedSlice/end", "shape": [4], "dtype": "int32"}, {"name": "model_59/tf.strided_slice_23/ones_like", "shape": [4], "dtype": "int32"}, {"name": "model_59/tf.compat.v1.pad_7/Pad/paddings", "shape": [4, 2], "dtype": "int32"}, {"name": "model_59/tf.nn.convolution_213/convolution/filter", "shape": [3, 3, 3, 16], "dtype": "float32"}, {"name": "model_59/tf.math.add_123/Add/y", "shape": [16], "dtype": "float32"}, {"name": "model_59/tf.compat.v1.pad_8/Pad/paddings", "shape": [4, 2], "dtype": "int32"}, {"name": "model_59/tf.nn.convolution_214/convolution/filter", "shape": [3, 3, 16, 32], "dtype": "float32"}, {"name": "model_59/tf.math.add_124/Add/y", "shape": [32], "dtype": "float32"}, {"name": "model_59/tf.nn.convolution_215/convolution/filter", "shape": [1, 1, 32, 32], "dtype": "float32"}, {"name": "model_59/tf.math.add_125/Add/y", "shape": [32], "dtype": "float32"}, {"name": "model_59/tf.strided_slice_24/ones_like/tensor", "shape": [4], "dtype": "int32"}, {"name": "model_59/tf.strided_slice_24/StridedSlice/end", "shape": [4], "dtype": "int32"}, {"name": "model_59/tf.strided_slice_24/ones_like", "shape": [4], "dtype": "int32"}, {"name": "model_59/tf.nn.convolution_216/convolution/filter", "shape": [3, 3, 16, 16], "dtype": "float32"}, {"name": "model_59/tf.math.add_126/Add/y", "shape": [16], "dtype": "float32"}, {"name": "model_59/tf.nn.convolution_217/convolution/filter", "shape": [3, 3, 16, 16], "dtype": "float32"}, {"name": "model_59/tf.math.add_127/Add/y", "shape": [16], "dtype": "float32"}, {"name": "model_59/tf.concat_29/concat/axis", "shape": [], "dtype": "int32"}, {"name": "model_59/tf.nn.convolution_218/convolution/filter", "shape": [1, 1, 48, 32], "dtype": "float32"}, {"name": "model_59/tf.math.add_130/Add/y", "shape": [32], "dtype": "float32"}, {"name": "model_59/tf.compat.v1.pad_9/Pad/paddings", "shape": [4, 2], "dtype": "int32"}, {"name": "model_59/tf.nn.convolution_219/convolution/filter", "shape": [3, 3, 32, 64], "dtype": "float32"}, {"name": "model_59/tf.math.add_131/Add/y", "shape": [64], "dtype": "float32"}, {"name": "model_59/tf.nn.convolution_220/convolution/filter", "shape": [1, 1, 64, 64], "dtype": "float32"}, {"name": "model_59/tf.math.add_132/Add/y", "shape": [64], "dtype": "float32"}, {"name": "model_59/tf.strided_slice_26/ones_like/tensor", "shape": [4], "dtype": "int32"}, {"name": "model_59/tf.strided_slice_26/StridedSlice/end", "shape": [4], "dtype": "int32"}, {"name": "model_59/tf.strided_slice_26/ones_like", "shape": [4], "dtype": "int32"}, {"name": "model_59/tf.nn.convolution_221/convolution/filter", "shape": [3, 3, 32, 32], "dtype": "float32"}, {"name": "model_59/tf.math.add_133/Add/y", "shape": [32], "dtype": "float32"}, {"name": "model_59/tf.nn.convolution_222/convolution/filter", "shape": [3, 3, 32, 32], "dtype": "float32"}, {"name": "model_59/tf.math.add_134/Add/y", "shape": [32], "dtype": "float32"}, {"name": "model_59/tf.nn.convolution_223/convolution/filter", "shape": [3, 3, 32, 32], "dtype": "float32"}, {"name": "model_59/tf.math.add_137/Add/y", "shape": [32], "dtype": "float32"}, {"name": "model_59/tf.nn.convolution_224/convolution/filter", "shape": [3, 3, 32, 32], "dtype": "float32"}, {"name": "model_59/tf.math.add_138/Add/y", "shape": [32], "dtype": "float32"}, {"name": "model_59/tf.concat_30/concat/axis", "shape": [], "dtype": "int32"}, {"name": "model_59/tf.nn.convolution_225/convolution/filter", "shape": [1, 1, 128, 64], "dtype": "float32"}, {"name": "model_59/tf.math.add_141/Add/y", "shape": [64], "dtype": "float32"}, {"name": "model_59/tf.compat.v1.pad_10/Pad/paddings", "shape": [4, 2], "dtype": "int32"}, {"name": "model_59/tf.nn.convolution_226/convolution/filter", "shape": [3, 3, 64, 128], "dtype": "float32"}, {"name": "model_59/tf.math.add_142/Add/y", "shape": [128], "dtype": "float32"}, {"name": "model_59/tf.nn.convolution_227/convolution/filter", "shape": [1, 1, 128, 128], "dtype": "float32"}, {"name": "model_59/tf.math.add_143/Add/y", "shape": [128], "dtype": "float32"}, {"name": "model_59/tf.strided_slice_28/ones_like/tensor", "shape": [4], "dtype": "int32"}, {"name": "model_59/tf.strided_slice_28/StridedSlice/end", "shape": [4], "dtype": "int32"}, {"name": "model_59/tf.strided_slice_28/ones_like", "shape": [4], "dtype": "int32"}, {"name": "model_59/tf.nn.convolution_228/convolution/filter", "shape": [3, 3, 64, 64], "dtype": "float32"}, {"name": "model_59/tf.math.add_144/Add/y", "shape": [64], "dtype": "float32"}, {"name": "model_59/tf.nn.convolution_229/convolution/filter", "shape": [3, 3, 64, 64], "dtype": "float32"}, {"name": "model_59/tf.math.add_145/Add/y", "shape": [64], "dtype": "float32"}, {"name": "model_59/tf.nn.convolution_230/convolution/filter", "shape": [3, 3, 64, 64], "dtype": "float32"}, {"name": "model_59/tf.math.add_148/Add/y", "shape": [64], "dtype": "float32"}, {"name": "model_59/tf.nn.convolution_231/convolution/filter", "shape": [3, 3, 64, 64], "dtype": "float32"}, {"name": "model_59/tf.math.add_149/Add/y", "shape": [64], "dtype": "float32"}, {"name": "model_59/tf.concat_31/concat/axis", "shape": [], "dtype": "int32"}, {"name": "model_59/tf.nn.convolution_232/convolution/filter", "shape": [1, 1, 256, 128], "dtype": "float32"}, {"name": "model_59/tf.math.add_152/Add/y", "shape": [128], "dtype": "float32"}, {"name": "model_59/tf.compat.v1.pad_11/Pad/paddings", "shape": [4, 2], "dtype": "int32"}, {"name": "model_59/tf.nn.convolution_233/convolution/filter", "shape": [3, 3, 128, 256], "dtype": "float32"}, {"name": "model_59/tf.math.add_153/Add/y", "shape": [256], "dtype": "float32"}, {"name": "model_59/tf.nn.convolution_234/convolution/filter", "shape": [1, 1, 256, 256], "dtype": "float32"}, {"name": "model_59/tf.math.add_154/Add/y", "shape": [256], "dtype": "float32"}, {"name": "model_59/tf.strided_slice_30/ones_like/tensor", "shape": [4], "dtype": "int32"}, {"name": "model_59/tf.strided_slice_30/StridedSlice/end", "shape": [4], "dtype": "int32"}, {"name": "model_59/tf.strided_slice_30/ones_like", "shape": [4], "dtype": "int32"}, {"name": "model_59/tf.nn.convolution_235/convolution/filter", "shape": [3, 3, 128, 128], "dtype": "float32"}, {"name": "model_59/tf.math.add_155/Add/y", "shape": [128], "dtype": "float32"}, {"name": "model_59/tf.nn.convolution_236/convolution/filter", "shape": [3, 3, 128, 128], "dtype": "float32"}, {"name": "model_59/tf.math.add_156/Add/y", "shape": [128], "dtype": "float32"}, {"name": "model_59/tf.concat_32/concat/axis", "shape": [], "dtype": "int32"}, {"name": "model_59/tf.nn.convolution_237/convolution/filter", "shape": [1, 1, 384, 256], "dtype": "float32"}, {"name": "model_59/tf.math.add_159/Add/y", "shape": [256], "dtype": "float32"}, {"name": "model_59/tf.nn.convolution_238/convolution/filter", "shape": [1, 1, 256, 128], "dtype": "float32"}, {"name": "model_59/tf.math.add_160/Add/y", "shape": [128], "dtype": "float32"}, {"name": "model_59/tf.concat_33/concat/axis", "shape": [], "dtype": "int32"}, {"name": "model_59/tf.nn.convolution_239/convolution/filter", "shape": [1, 1, 512, 256], "dtype": "float32"}, {"name": "model_59/tf.math.add_161/Add/y", "shape": [256], "dtype": "float32"}, {"name": "model_59/tf.concat_43/concat/axis", "shape": [], "dtype": "int32"}, {"name": "model_59/tf.nn.convolution_268/convolution/filter", "shape": [1, 1, 384, 256], "dtype": "float32"}, {"name": "model_59/tf.math.add_190/Add/y", "shape": [256], "dtype": "float32"}, {"name": "model_59/tf.strided_slice_38/ones_like/tensor", "shape": [4], "dtype": "int32"}, {"name": "model_59/tf.strided_slice_38/StridedSlice/end", "shape": [4], "dtype": "int32"}, {"name": "model_59/tf.strided_slice_38/ones_like", "shape": [4], "dtype": "int32"}, {"name": "model_59/tf.nn.convolution_271/convolution/filter", "shape": [3, 3, 128, 128], "dtype": "float32"}, {"name": "model_59/tf.math.add_193/Add/y", "shape": [128], "dtype": "float32"}, {"name": "model_59/tf.nn.convolution_272/convolution/filter", "shape": [3, 3, 128, 128], "dtype": "float32"}, {"name": "model_59/tf.math.add_194/Add/y", "shape": [128], "dtype": "float32"}, {"name": "model_59/tf.concat_45/concat/axis", "shape": [], "dtype": "int32"}, {"name": "model_59/tf.nn.convolution_273/convolution/filter", "shape": [1, 1, 384, 256], "dtype": "float32"}, {"name": "model_59/tf.math.add_195/Add/y", "shape": [256], "dtype": "float32"}, {"name": "model_59/tf.nn.convolution_275/convolution/filter", "shape": [3, 3, 256, 80], "dtype": "float32"}, {"name": "model_59/tf.math.add_197/Add/y", "shape": [80], "dtype": "float32"}, {"name": "model_59/tf.nn.convolution_277/convolution/filter", "shape": [3, 3, 80, 80], "dtype": "float32"}, {"name": "model_59/tf.math.add_199/Add/y", "shape": [80], "dtype": "float32"}, {"name": "model_59/tf.nn.convolution_279/convolution/filter", "shape": [1, 1, 80, 80], "dtype": "float32"}, {"name": "model_59/tf.math.add_201/Add/y", "shape": [80], "dtype": "float32"}, {"name": "model_59/tf.concat_46/concat/axis", "shape": [], "dtype": "int32"}, {"name": "model_59/tf.compat.v1.transpose_227/transpose/perm", "shape": [4], "dtype": "int32"}, {"name": "model_59/tf.reshape_32/Reshape/shape", "shape": [3], "dtype": "int32"}, {"name": "model_59/tf.concat_47/concat/axis", "shape": [], "dtype": "int32"}, {"name": "model_59/tf.strided_slice_40/StridedSlice/begin", "shape": [3], "dtype": "int32"}, {"name": "model_59/tf.strided_slice_40/StridedSlice/end", "shape": [3], "dtype": "int32"}, {"name": "model_59/tf.strided_slice_40/StridedSlice/strides", "shape": [3], "dtype": "int32"}, {"name": "model_59/output0/concat/axis", "shape": [], "dtype": "int32"}]}]}